model/abse_model.pth (torch, 210997 bytes, 11 tensors)

lstm.weight_ih_l0 f4 [256, 34]
00000000: 189f 2b3d 613f afbd 3555 013e ceec c13c
00000010: 3b58 4cbd dad9 ed3d 9c00 853d 91b1 e63c
00000020: 4569 ccbd 2af5 a03d f248 b13d 2a82 49bd
00000030: 0afe f2bc 32ae babd 6227 7c3d 64ad 2d3d
00000040: f984 12bc 86ec d1bd 2108 b2bd b587 183d
00000050: 3b63 f63d ad51 78bd e17b 2ebb 2844 dabd
00000060: 4ea7 bdbd c6d1 023e a2c9 d0bd 33d9 40bd
00000070: 149f 523d bb91 fc3d c5f9 013e bb4d 53bb
00000080: 88ce ca3d 0a68 ef3d a059 9fbd d5a5 93bd
00000090: e0cb 9c3c 6364 d23c 224e aa3d c6d8 a6bb
000000a0: 14da 23bb 84ba f63d 66fe d0bd ea9a 81bd
000000b0: fa6c 2dbd 235e 5abd 8345 aebd a09c 5a3d
000000c0: 2ea9 8c3d d2c1 a23d d5a2 26bd 6f8d 773d
000000d0: e264 4c3d 63a9 60bd 5c63 e63d fe20 9a3d
000000e0: 67ce c73d 139f cabb 0bb8 ae3d d0a3 acbc
000000f0: 0234 8b3d bb28 133c adf0 f03d 1d0a eebc
00000100: d453 32bc 19b1 9b3a 9069 f43b d517 8d3d
00000110: f2e0 79bd 0f80 e3bd 4261 a23d 14d2 26bd
00000120: 754e de3d a385 bbbd 777b 01bd beb2 7d3d
00000130: 035f 64bd 45a8 0dbc 0fc7 033e 72b3 b03c
00000140: 0ad0 0c3d 75fd 30bd 460c fc3d dfc7 3abc
00000150: 0e46 983d c9c1 a03d 0d8e da3d 3440 493c
00000160: 7fdb 3fbd 3508 6a3b a022 a53d fcd8 fa3d
00000170: 8ea1 d63d a58c b5bd bf42 0d3d 9834 2dbd
00000180: f13e f03d 5437 c13d c73a 5c3d cd61 413c
00000190: 937a 863c 0a82 083e 768f 8abd 3890 c33d
000001a0: 379d ab3d 5cf6 5f3d f515 ee3d 0baa ec3c
000001b0: 372c 7c3c 056a ac3c b95b a0bd 95f7 fabc
000001c0: 6051 da3c 04f7 90bd 300b fd3a d006 3f3c
000001d0: ab2b c53b dd73 a23d 9755 8e3d 3dad bbbd
000001e0: b8a3 053e e34a d53d 55e0 0b3e 25a4 7dbd
000001f0: 6b7f 583d a8e7 013e 386f 53bd 4b8b b23d
00000200: bce8 d7bd 7638 113e 343d f23d e09d a83d
00000210: 104a c33d 3853 b33d fbe2 183d 883b 353b
00000220: f8da 92bd 6da2 7d3c 7605 ef3d 5dcd b6bd
00000230: 9953 883d 944d 953c 1e3a 103d db56 adbd
00000240: 404b 073e efae 763d c339 9bbc 5712 45bd
00000250: 6b29 033e ff29 ac3d 4e59 753d bbd6 a7bc
00000260: e22f 18bc 6b52 fa3d db0c d53b 030c f0bc
00000270: 526f 7d3d 8cbb d73d 0b94 b2bd b0ec 5cbb
00000280: 3c2a a5bd 607c cfbd 1bf7 123e 8717 89bd
00000290: 2c84 e63c 5c18 263d ace4 0dbd fd6e 24bd
000002a0: eab3 433d 1bd3 58bd 49b0 bd3d eee1 b1bd
000002b0: 2d9e d23d e3ef f93d 33bb ef3d d05b 053e
000002c0: 847e ac3a 17cd a2bd dc6f b33d 6a4f bc3d
000002d0: a359 8a3d 1d94 4abd 336d 6ebc a348 873d
000002e0: 13e4 3b3d 7e46 a93d e72a a4bc 336c d4bd
000002f0: fe33 b9bc 0fca fa3d 75c1 86bd 6417 73bd
00000300: 82f4 723d f483 e43d 2881 3cbd 8000 e8bc
00000310: fc36 e7bb 5585 f6bb cb3d dabd 824e 17bd
00000320: cae2 cc3d 815b c83d 93a9 bc3d 8e7d e23d
00000330: b60e 8bbc 86e6 543d c64a 9dbd c6bf 1c3d
00000340: 1e68 1f3e af93 54bd 09f6 00bd b217 8abd
00000350: 8d6c 0c3e b5c6 b4bd 9718 b93d 3677 033e
00000360: a63b 063e 9842 203d 4cb7 b63d 8c02 1cbb
00000370: de50 86ba 595f b93d a9f1 82bd 546d 793c
00000380: bdd3 0a3e 44e2 803d c7c8 ddbd f460 083e
00000390: 5290 be3a 8b39 cdbc 64d6 1b3d 0110 943d
000003a0: 6c7d bf3d 8fd2 2ebc 5de6 e7bc 7271 2cbc
000003b0: f4c7 df3d 56b2 993d ac8c 04be 39db a63d
000003c0: 5e2d 023c 73e6 8e3d 54d3 b4bd 5269 b93c
000003d0: 6db6 833c 8df0 be3d 39f3 34bd b980 bbbd
000003e0: 8b1c 593d ea27 423d 43f6 b0bd e395 d0bc
000003f0: d1a6 b13c adfd 063d 754e a7bd 7415 853d
0.04189977 -0.085570104 0.1263016 0.023672488 -0.04988883 0.116138175 0.06494257 0.028160842
-0.09981016 0.07859261 0.08656491 -0.0491964 -0.02966215 -0.09115256 0.061560996 0.042401686
-0.008942836 -0.102501914 -0.08692957 0.037238795 0.120306455 -0.060624767 -0.002662413 -0.10657531
-0.092604265 0.12775335 -0.101947084 -0.047082137 0.05142124 0.123324834 0.12692936 -0.0032242376
0.09902674 0.11689766 -0.077807665 -0.07209364 0.019140184 0.025682634 0.08315684 -0.0050917594
-0.002500181 0.12047294 -0.10204773 -0.06328376 -0.042340256 -0.053312432 -0.08509352 0.053372025
0.06868206 0.079471245 -0.040682632 0.060437616 0.049900897 -0.05484904 0.1124942 0.07525824
0.09756165 -0.006183514 0.08531197 -0.021074206 0.06797029 0.008981879 0.11764655 -0.029057557
-0.010884244 0.0011878341 0.007458873 0.06889311 -0.06100554 -0.111084096 0.07928707 -0.04072769
0.10854808 -0.091563486 -0.031611886 0.06193804 -0.055754673 -0.008646076 0.12868904 0.021569941
0.03437809 -0.043210465 0.123070285 -0.011400192 0.07435237 0.078494616 0.10671625 0.012283374
-0.046840187 0.0035710458 0.08063245 0.12248418 0.10480033 -0.088647164 0.034487482 -0.042286485
0.11730755 0.09434381 0.053766992 0.011803103 0.01641587 0.13330856 -0.06765644 0.09548992
0.08379596 0.054678306 0.11625282 0.028889677 0.015391401 0.021046648 -0.07829995 -0.030635634
0.02665013 -0.070783645 0.0019305702 0.011659339 0.0060171685 0.079322554 0.06949919 -0.09163902
0.13050735 0.10414674 0.13659795 -0.06192412 0.05285589 0.12686026 -0.05161974 0.08717974
-0.105424374 0.14181694 0.1182808 0.08233237 0.09535611 0.08756107 0.03732584 0.0027653892
-0.07170671 0.01548062 0.116709635 -0.08925889 0.0665657 0.018225469 0.035211675 -0.08463832
0.132123 0.060225423 -0.018948441 -0.048113193 0.12808768 0.084064476 0.05989962 -0.020488134
-0.00928876 0.12222751 0.0065017766 -0.029302603 0.06187374 0.105338186 -0.08719643 -0.0033710413
-0.08064696 -0.101311445 0.14352076 -0.066939406 0.028139196 0.040550575 -0.034641907 -0.04014491
0.047779 -0.0529357 0.09262139 -0.08685671 0.10284076 0.12203958 0.11705627 0.13023305
0.0013160263 -0.07949274 0.0876157 0.091948345 0.06755378 -0.049457658 -0.014552402 0.06605651
0.045871805 0.082653984 -0.020039989 -0.103722 -0.0226078 0.12245571 -0.06579868 -0.05934848
0.059315212 0.111579806 -0.04602161 -0.02832055 -0.007056115 -0.0075232186 -0.10656317 -0.036940105
0.10004194 0.09783078 0.09212031 0.11059104 -0.016974788 0.051977657 -0.076802775 0.038268827
0.15567061 -0.051898655 -0.031484637 -0.06742801 0.13713284 -0.08826963 0.09037893 0.12838444
0.13108692 0.03912601 0.0892168 -0.002380523 -0.0010247489 0.09051389 -0.06393749 0.01522382
0.13557334 0.06293157 -0.10829311 0.13318235 0.001453886 -0.025051853 0.038046256 0.07229615
0.09350094 -0.010670318 -0.028308088 -0.010525094 0.1092681 0.07504718 -0.12944287 0.08147282
0.007945387 0.069775485 -0.0882937 0.022633228 0.016078198 0.09323225 -0.044177268 -0.09155411
0.053005736 0.047401346 -0.08640721 -0.025462097 0.02168599 0.032956768 -0.08169261 0.064982325

lstm.weight_hh_l0 f4 [256, 64]
00000000: c2dc 56bd 7684 4a3c 4afc 953d bc47 2f3d
00000010: b2ee 7abd 189e debc ccc1 f33c bec9 8b3d
00000020: 7eb4 88bc 62fd 9d3d e320 97bd 3bab 693c
00000030: b0d2 09bd 4418 163e 0d2e 2b3c 1b88 39bd
00000040: f0de c03d b7d9 0ebd 1bd7 f83d d4a0 053d
00000050: dbc0 cd3d 011a b23d 3be8 e6bd 90c8 ef3c
00000060: 8deb fc3d bb9c 143d 32ff 3f3d c38e 9e3d
00000070: 8461 4d3d 2623 1ebd 6e16 293d 9f3f 813d
00000080: 43a8 e1bc 46d6 833d 1dde 38bd c22a d1ba
00000090: 0a43 2b3d fbac dd3c a80b f1bc cdcc 8b3d
000000a0: 84f3 093d f5b4 833d 2898 71bd cded dd3d
000000b0: 10c5 06bb 54b8 60bd 80fe b3bd 0a98 b83d
000000c0: 172a 943d c4d1 0b3c 94fb 013e bde1 2a3c
000000d0: 353c ca3d 4f82 c7bd 034e d1bd 8ddd cbbd
000000e0: 6567 c13d fafb 403d 62f7 f3bc c243 183c
000000f0: a910 d6bc a55c 503d 66b2 b43d fa02 993d
00000100: 3e29 b43d cbf6 b2bd ce7a 53bd 7d75 af3d
00000110: 6354 843d 81be 473d 7f7c d13d b021 f23c
00000120: 3119 91bc 24e4 ba3d 1efc 553c 1e90 2dbc
00000130: 272b e9bd c688 8fbd 1157 03be 3beb 8eba
00000140: 7d6e ac3d 213a 8abd 80f7 4b3d 096b 4d3d
00000150: af8f 9e3d c464 873c d655 c7bd 9ea3 613c
00000160: 23c8 bf3d a700 693d d429 fbbb 784a c03c
00000170: 33fe db3d 2037 dcbd 15f2 d93d 44d5 e83c
00000180: 91e8 9cbd 663d 8dbd 471c dc3c 6a46 933d
00000190: 1687 743c a0cc 373d e6ee a83d b795 683d
000001a0: f71a 6dbc f719 5a3d 76fe 0b3e 8a71 fc3d
000001b0: 25c3 8dbd 51df 29be 9cb5 5bbc c31f aa3d
000001c0: cd5e 963d e8b7 c9bd 5a57 9f3c 3a2f 073e
000001d0: f1f5 e7bd b982 f33d 3c3c a33c 855c 67bc
000001e0: 078d 70bc d5fc c83c 6b85 05be 83c6 18bc
000001f0: afa0 cdb9 3dfb f83d c765 2c3d fbea b3bd
00000200: 36e1 a03d f539 d73d 28a4 98bd 449c 0cbd
00000210: d4b8 803d e6ef 44bc a9c6 91bd d44c bbbd
00000220: 59e5 103d a7a0 99bd 71a0 81bd 98ca bebd
00000230: fffa c93d 87f3 8e3d 1026 d73c 37ab 9b3d
00000240: d48b 92bd 10e0 cfbd 55a2 aebd f230 b8bd
00000250: 3a4a 82bd b15b ea3c 72f4 cabd 36f4 473d
00000260: 7f86 363d 42cc 81bd 56c0 893d c46f ad3a
00000270: 931b c5bd 780b a2bb 5617 4bbd 9756 5d3c
00000280: 88b0 f7bc dd08 973d e5fe 93bd 1067 90bd
00000290: fdab a23d f985 b13d b758 ab3c 9e13 b13d
000002a0: 0da9 dfbd 7f0d 003e 97d8 b83c dfaf f3bd
000002b0: e7a2 103d 524d 2fbd 797b a23c 29f8 603c
000002c0: f3b9 a13d 15fd 8fbd a00e 7d3c d8ad 973b
000002d0: b149 d7bd d4c3 e53d 7403 bcbd a7e0 48bd
000002e0: 5bc1 12bc 94e3 db3c 6bb0 a03d a1b8 b23c
000002f0: ad9d 65bb dff2 cf3d 28be e83d f8ee afbd
00000300: 4014 6fbc 0a02 26bd dfa0 dd3d 63fc 76bd
00000310: 893e c7bd 6bd9 cdbd 8d1a a53d 0cee 743d
00000320: 357c d3bc 68bc e1bd 7cdf 5cbd abac f83c
00000330: d4a1 d4bc da76 a83d ce69 cc3d ee2e 733b
00000340: 92b5 fc3d 5c14 31bb 016b 303d 35ae 853c
00000350: 669f ae3d 30de bfbd 7212 ff3c 0749 b33c
00000360: d26d 983d 32c7 0a3e 4d04 943d ce63 cd39
00000370: 42a6 c23d 34d4 ab3d d8f1 2d3d ae13 9fbd
00000380: 2f38 7dbd a8ac b83d 5e5f 163d d887 39bd
00000390: 8cd8 c03d 8f39 c23c 3373 a9bd 67e3 5d3c
000003a0: d035 4dbd c937 5ebc d6b0 a2bc 1bef f4bd
000003b0: 7082 b0bd 97f7 2abe dcec 073e 51b6 123e
000003c0: 5a07 20bd 61e2 3abd c9ad 0d3e 8acf d7bd
000003d0: 86c5 68bc 7e1f 293d 6545 ccbd 922a debd
000003e0: 0b51 683c f23f e43c 10fc a43d 4844 b53d
000003f0: 0dbd 4d3d 3ea5 563d 0cca df3d ff16 c7bd
-0.052456625 0.012360683 0.07323511 0.04279302 -0.061262794 -0.027174994 0.029755495 0.06825589
-0.016687628 0.077143446 -0.073793195 0.014262016 -0.033648193 0.14657694 0.010447991 -0.045295816
0.09417522 -0.034875598 0.12150403 0.03262408 0.1004655 0.08696366 -0.11274763 0.02927044
0.12349615 0.036282282 0.046874233 0.077420734 0.050141826 -0.03860774 0.041281156 0.06310963
-0.027546054 0.06437354 -0.0451337 -0.0015958177 0.04181198 0.027060023 -0.029424503 0.06826172
0.0336795 0.06430999 -0.058982998 0.108363725 -0.0020564236 -0.05486329 -0.087887764 0.09013374
0.072345905 0.008533899 0.12693626 0.010429797 0.09874765 -0.09741651 -0.10219958 -0.09954367
0.09443549 0.047115304 -0.029781047 0.0092934985 -0.026130991 0.050869603 0.08823089 0.07471271
0.08796929 -0.08738478 -0.051630788 0.08567331 0.06461408 0.048765663 0.10228824 0.02955708
-0.017712208 0.091255456 0.013060598 -0.010593442 -0.11385184 -0.07008509 -0.12826182 -0.0010903844
0.084195115 -0.067493685 0.04979658 0.050150905 0.07742249 0.016527541 -0.09733169 0.0137719195
0.09364345 0.056885388 -0.0076648984 0.02347301 0.10741844 -0.10752702 0.106418766 0.028422005
-0.07661546 -0.068964764 0.026868952 0.07191165 0.014924785 0.04487288 0.08248691 0.056783404
-0.014471761 0.05324742 0.13671288 0.12326343 -0.069219865 -0.16589095 -0.013409998 0.08306839
0.073423006 -0.098495305 0.019450832 0.13201609 -0.113262065 0.11890168 0.019926183 -0.0141211795
-0.014682061 0.024534622 -0.13039176 -0.009324673 -0.00039220366 0.12157295 0.04208925 -0.08785053
0.078554556 0.10509101 -0.07453185 -0.034328714 0.06285253 -0.012020087 -0.071179695 -0.09145513
0.035374973 -0.07501345 -0.0632943 -0.093159854 0.09862327 0.06980043 0.026263267 0.07601016
-0.07155576 -0.101501584 -0.08527056 -0.089937106 -0.06361814 0.028608175 -0.099099055 0.048816882
0.04456186 -0.06337787 0.06726138 0.0013232161 -0.096244 -0.004945215 -0.0495828 0.013509414
-0.030235544 0.073747374 -0.07226352 -0.070509076 0.079429604 0.086681314 0.020916326 0.0864632
-0.10920916 0.12505148 0.022564216 -0.11898779 0.035311606 -0.042798348 0.019834267 0.013731041
0.07896795 -0.070306934 0.015445381 0.004628878 -0.105121024 0.11218992 -0.09180346 -0.04904237
-0.008957232 0.026841916 0.07846149 0.021816554 -0.003503661 0.10153746 0.113643944 -0.085905015
-0.01459223 -0.04052929 0.10821699 -0.06029929 -0.097287245 -0.10051235 0.08061705 0.05979733
-0.025816062 -0.11022264 -0.05392407 0.030355772 -0.025956072 0.08225794 0.09981118 0.003710683
0.12339319 -0.0027020192 0.043070797 0.01631842 0.085264966 -0.09368551 0.031136725 0.021885408
0.074428216 0.1355255 0.07227383 0.00039175007 0.095043674 0.08390084 0.04246697 -0.077674255
-0.06182116 0.090173066 0.036712043 -0.045295566 0.09416303 0.023709087 -0.08273926 0.0135429865
-0.050100148 -0.013563105 -0.019859713 -0.11959668 -0.08618629 -0.1669601 0.13273948 0.1432736
-0.03906951 -0.045626048 0.13835825 -0.10537632 -0.0142072495 0.0412898 -0.099741735 -0.108479634
0.014179478 0.027862523 0.080558896 0.08850914 0.05022912 0.05240368 0.10927209 -0.09721183

lstm.bias_ih_l0 f4 [256]
00000000: ece0 ef3d f494 a13d 8072 063e 3cf7 cf3d
00000010: 7ba2 9a3d 1552 67bd ad8e cf3d fa4f cebd
00000020: 2801 bcbc 21c6 30bd 7fab 33bd 8e7a cdbd
00000030: 4eb7 1a3d 2295 a2bd 60ea 053e 1b01 26bb
00000040: 2665 ae3d 98de 483a 707e e7bc 67f9 d23d
00000050: 35e6 c43d 0b0f 3ebd dd42 8a3d 4346 703c
00000060: 21a7 babd 8594 c73b 3d60 963d 4a73 ba3d
00000070: 3d96 6bbd b14d 943d dc65 a23b 414c 48bd
00000080: cb7e a3bc 737a 21bd 8110 e63d 25d6 b23d
00000090: c5be d33b dc22 013e f7c7 27bc 68b6 873c
000000a0: 05c0 da3d 256f 98bd a584 e0bd 2ea6 6b3d
000000b0: c7f8 213c 4456 e23d 70ca de3b e2c0 ab3d
000000c0: 6f41 013e cc49 8dbd e15a 89bb 66b8 243d
000000d0: 4648 373d cda1 333c 8155 06bd 9d7c 423d
000000e0: dd3b a23d c46e c83d 1229 94bd b025 093e
000000f0: aaa8 793d 0e0d c33a b3b8 89bd 115a dbbd
00000100: 341c d5bd 8637 fc3c e9cc 91bc 60c1 01bd
00000110: c026 0c3d 83d0 f03d 6324 56bd b0d1 c9bd
00000120: a5bd 093e 9afe 9cbc 8f0d fb3c 74bb aebc
00000130: 62f3 f0bb f473 d63d 81be 113e bc21 f63b
00000140: c68e c63c 398d 3fbd 0058 e83d d2ea 8d3d
00000150: c479 61bd 3974 ef3d 2bd7 98bd 4140 87bd
00000160: 04cf c43d 8c5e 9dbd 2002 753b 40e5 813c
00000170: 16bd f53c da3f d63d c788 7cbd ca75 a93c
00000180: 0013 51bd fd78 1d3c ccca b4bd 0a54 b83c
00000190: 6417 8abd 9d9d 383d e13b 6b3c 2840 82bd
000001a0: ba37 c2bd 95c6 7dbd 49f5 52bd 5a7f 113d
000001b0: 15a4 0f3d 2d08 3ebc 600c e83d 3ac1 aa3d
000001c0: 5364 603d 152b 22bd efa2 ee3d 1f87 81bc
000001d0: bd45 b7bd 8dab 173e 4996 023e 345d c8bd
000001e0: 241d ccbd d727 27bd 7337 a93d d3ec 9c3c
000001f0: 95d9 d13d 37f1 b73d 6545 ed3d 448c 91bd
00000200: d205 a9bd 6c85 183d 75e6 da3d 948c 9bbc
00000210: 0a92 b3bd b7c9 c63d 60fe 65bc 05f5 9fbc
00000220: 99c4 f7bd 115a cf3a ab3e 6cbd 855a 633d
00000230: 9996 72bd 30de 333d b9d1 69bd c556 843d
00000240: e239 923d f2e7 89bd 6a97 b03d 874a 1b3d
00000250: 20d7 2abd ba4e e5bd ae70 a43d d447 443d
00000260: 5b14 63bb 1134 af3c a9a1 273d 2494 c8bc
00000270: 1a57 f6bb 1f9a 14bd d4db 3b3d f1b4 993d
00000280: 5852 753d e9bc 0a3d 687b f5bc f6c0 b5bd
00000290: 9941 813d 2e1f 54bd 8877 12be aadd 55bd
000002a0: b23f 22bd c453 dbbb 6c8d adbd c796 01bc
000002b0: 4be0 243d 8d69 223c a306 c13b 09f4 82bd
000002c0: 1839 763d 43ba 9bbd a83b e73b 2d09 643d
000002d0: 2cea 433d 3e34 173c 69a6 9e3d f904 da3d
000002e0: 4c62 40bd 3f7f 47bc 1e69 d5bd 87e3 a8bd
000002f0: 6b57 bd3c a870 313c aced f53d 0b51 f13b
00000300: 9deb 9ebd 5b33 c6bd de93 943d 954e 053e
00000310: 1ee5 c9bc 7a10 893d d64f b23d a138 013a
00000320: 08c0 ceb9 452c d63d 09d1 c53d 210b 7cbd
00000330: 5af4 00bd 9517 cfbd e4da 83bb ab59 ce3d
00000340: 77a1 4b3d eb63 b1bc ae96 d43d b952 ad3d
00000350: 91ed cbbd b854 c1bd 4f51 adbd c2ee e7bb
00000360: 7f08 393d d6c7 923d 63ca 843c 57f2 0c3e
00000370: 7736 2ebc 01ea 883c 6f31 22bd 0e23 313d
00000380: 69ff c03d ba52 c9bd 360b a63d f956 d4bd
00000390: 5598 25bd 3f0d 0c3e e22b 1dbd 3466 643d
000003a0: a798 02be ce11 48bd 81ff 54bc 2421 7f3c
000003b0: 7e77 f33d c042 ac3d deaa 553d dd5f 1c3e
000003c0: 6e0b c93d 6ea7 aabd d7b6 683c 186a a03b
000003d0: da4d 79bc 4b40 8ebc 7073 15bd c826 5d3d
000003e0: f190 a23c 7ca4 f5bc 01f0 50bd 7ee4 58bc
000003f0: 8c31 5b3d 3e0f c8bd 20f1 cfbc bda3 87bc
0.11712822 0.07889739 0.13129616 0.10154578 0.07550522 -0.056474764 0.10134635 -0.10073848
-0.02294977 -0.0431577 -0.043864723 -0.10033141 0.03777247 -0.07938601 0.13077688 -0.0025330249
0.08515386 0.00076625636 -0.028258532 0.10301476 0.09614221 -0.046401065 0.067510344 0.014665189
-0.091139086 0.006090703 0.07342575 0.09104021 -0.057516325 0.07241381 0.0049559902 -0.048900846
-0.01995792 -0.039423417 0.112336166 0.08732251 0.0064619505 0.12610954 -0.010240546 0.01656647
0.10681156 -0.07443074 -0.109628 0.05753153 0.009885973 0.1105161 0.006799035 0.08386399
0.12622617 -0.06898841 -0.004191742 0.04021492 0.04474666 0.010963869 -0.032796387 0.04748212
0.07921574 0.09786752 -0.07234396 0.13393283 0.060951866 0.001488121 -0.06724682 -0.10710538
-0.1040577 0.030788194 -0.017797904 -0.031678557 0.034216642 0.117585205 -0.052280795 -0.09854448
0.1345125 -0.019164372 0.030646114 -0.021329619 -0.0073532322 0.10471335 0.14232828 0.0075113457
0.024238002 -0.04676554 0.1134491 0.06929554 -0.055047765 0.116920896 -0.07462915 -0.06604052
0.096097976 -0.07684049 0.00373853 0.015856385 0.02999739 0.104613975 -0.06165388 0.020686049
-0.05104351 0.009611365 -0.08827743 0.02250101 -0.06742743 0.045072187 0.014357538 -0.06359893
-0.09483285 -0.06195696 -0.051503453 0.035521843 0.03506859 -0.011598629 0.11330485 0.08337636
0.054783177 -0.039591867 0.11652171 -0.015811501 -0.089488484 0.14811535 0.12752642 -0.09783402
-0.09966496 -0.04080948 0.08262529 0.019155895 0.102465786 0.08981555 0.115855016 -0.07106832
-0.08253063 0.037236616 0.106884874 -0.018987931 -0.08768089 0.09706443 -0.0140376985 -0.019526014
-0.12098045 0.0015819689 -0.057676952 0.055506248 -0.059225652 0.043913066 -0.057084773 0.064618625
0.071399465 -0.06733693 0.0862263 0.03791287 -0.041709065 -0.111966565 0.080293044 0.047920063
-0.0034649584 0.021387132 0.040925656 -0.024484701 -0.0075177075 -0.036279794 0.04586394 0.07505215
0.059892982 0.033871565 -0.029966071 -0.08874695 0.0631134 -0.051787548 -0.1430341 -0.05221335
-0.039611526 -0.0066933353 -0.0847424 -0.007909483 0.040252965 0.009912861 0.0058906837 -0.06394202
0.060113043 -0.07603886 0.007056672 0.055672813 0.047830746 0.009228764 0.07746584 0.1064548
-0.046968743 -0.012176334 -0.1042044 -0.082465224 0.023112973 0.010830082 0.12008223 0.0073643974
-0.077597834 -0.09677764 0.07254766 0.13018258 -0.024645384 0.06692596 0.08706634 0.0004929398
-0.00039434456 0.104576625 0.09659011 -0.06153405 -0.03148303 -0.1011192 -0.0040238965 0.100756966
0.04971453 -0.02165409 0.10380302 0.08463044 -0.099574216 -0.09439987 -0.08462774 -0.0070780227
0.045174118 0.07167022 0.016209787 0.1376432 -0.010633103 0.016713144 -0.039597925 0.04324632
0.094237156 -0.09830232 0.08107607 -0.10368151 -0.04042848 0.13676928 -0.038371928 0.05576153
-0.12753545 -0.048845105 -0.01300037 0.015571866 0.11888026 0.08411169 0.052164905 0.15270944
0.09816633 -0.08332716 0.014203749 0.00489546 -0.015216315 -0.017364642 -0.036487043 0.053992063
0.019844504 -0.029985659 -0.051010136 -0.0132380705 0.05351405 -0.09768532 -0.025383532 -0.016557569

lstm.bias_hh_l0 f4 [256]
00000000: 6a7e 313d 20dc 333d 2b12 0bbd 9992 163e
00000010: 34d4 8b3d 7617 7bbc 09d8 943d 3a5c 33ba
00000020: f949 203d ad2c 2cbd c789 e43d 5d72 5b3d
00000030: 2444 be3d 34d3 b63d 5026 a4bd 59da 8dbd
00000040: 9e1e b1bd d911 2fbc e28d 193c a442 4c3d
00000050: 923b 06bd 538d fc3c a245 053e 6e99 fd3b
00000060: a4b6 59b9 3811 1b3d 9511 9cbc 6e49 cf3b
00000070: 1ec6 983d c126 49bd 3b3a b7bd 45be 473c
00000080: 6030 14bd e931 b23d 9773 9fbd a1d1 c83d
00000090: d41f 1fbd ecc6 1cbd e423 da3d 5b2f 11bc
000000a0: f677 353b 2c2a 7a3d 11ef 4dbd a1ca a13d
000000b0: 553e 58bd 6b2e 07bd fbc9 963d 2f8a 01bd
000000c0: 7e4a 143d 8240 d5bd 189f 6e3d de1d 6abd
000000d0: 17e5 6f3c dc69 093e 933c 96bd 42cb a3bc
000000e0: e6b8 e7bd daa9 9dbd a263 cebd 3ba1 4abc
000000f0: 3135 9a3d 5b33 0c3d bb20 11bd 55de 51bb
00000100: acc9 c3bd 2792 52bd 78fe abbd 666a a7bd
00000110: 1557 863d 2069 483d 427b a53c fffb 583d
00000120: 169b 6bbc f424 0a3e 9d91 023e f563 bf3d
00000130: 9b6b b03d 9475 37bc 3928 cb3d be6c 8ebd
00000140: ede5 aabb 5a04 92bd 821d 96bd ff37 90bc
00000150: 6dc3 3ebd 1c09 743d 0b98 cbbb 7f7e 823d
00000160: 9e81 e83d 12bb f33d 74c9 f83d 4fb9 65bd
00000170: 1083 ec3d cedb e2bd f876 cfbd 84c2 acbc
00000180: d86e 823d 9eca b4bd 0de3 353d 3a8e c7bd
00000190: 7283 d5bd 2220 a3bd 8f54 6a3c 2828 93bc
000001a0: 469c a73d ed7d 023e e2e6 debd 3afe 9dba
000001b0: fb69 713d ae30 3c3d 2650 43bd 3607 933d
000001c0: 88dc c73d a0dc 83bd 9942 193e 71eb de3d
000001d0: 4127 b1bd 5999 183e cf36 92bd 5db0 043d
000001e0: d433 843d 8c42 9e3d c9cd b6bd a541 69bd
000001f0: 41bc 8e3d c7bf d0bc 248c cc3b 5494 b63d
00000200: 3916 4f3d 0e1c 073e 4ad0 0cbe c294 243c
00000210: febf 9cbd c682 a8bd 429a 2cbd f473 6ebd
00000220: 10cd 01be 75ea fcbd daae e33d c8f5 633c
00000230: 6e7f 53bc 9682 56bc 2d20 3f3c f108 03be
00000240: fca8 8dbd 36c8 b0bd be88 f63c d0c3 153c
00000250: 139c 83bd 8054 603d ffb8 d9bc ce5e 9bbd
00000260: 1448 cfbd 2229 7ebc b027 073e a52b 373c
00000270: d70e 9dbd c7d7 9e3d b08b 51bd 0eb5 543d
00000280: ba7c 35bd b62f 7c3d cfbc d0bd 28b2 d7bd
00000290: 0ed2 863d 3e51 30bd 1a4a 343d 800e cb3d
000002a0: 5dda fbbc 07a1 ba3c 34e2 c7bd 6d53 f63d
000002b0: f255 ccbd bc85 c33d 4fb6 10bc 6b1b e13c
000002c0: 828b bb3c eb8d b93d 9ac8 61bc 978a 34bd
000002d0: 5e54 73bd a712 cd3c 9016 073d 9deb cebd
000002e0: 8c96 9f3c 7783 b1bd 4681 cebd fbec 5f3d
000002f0: 5940 d4bd 4be2 cc3c c309 c53d a12a ea3d
00000300: 930a ff3d 14dd 0f3d dd4c 803d 700a 583d
00000310: 9a7a bb3c 31fa 2ebc c7d6 66bd 08cb ce3c
00000320: 542c d8bd 61b2 81bd 3a49 0abd 29db 43bd
00000330: 2e06 dfbd 17f9 d6bd 9fa3 9abd 0995 e13d
00000340: 5ec1 8abd bce0 5fbd 0709 e53d 7af1 76bd
00000350: fec8 4fbd 070d bdbd 13c4 42bd 5b59 2f3d
00000360: e080 d5bd c364 8a3d e1a9 d8bb c654 9c3d
00000370: 6d06 8c3b bdb1 edbd aaa2 b13d 9f73 c23d
00000380: 7cf5 20bd f989 ce3b 1678 a63c f6a4 fdbc
00000390: 4512 653d 2e75 023c db7e c63d a242 d73d
000003a0: a636 553b 5f4e a2bd 6fec 83bc e4d7 7f3b
000003b0: 5224 c4bd 0c83 9a3d 3957 94bd ad13 32bd
000003c0: a27f f83d a88e 6b3c 7440 e2bc 547c cd3d
000003d0: 5715 1bbc 88da 703d 41f5 bc3c 5901 0bbe
000003e0: 0472 cabd 3bbc b0bd 09ed db3d d432 d6bd
000003f0: b8b2 68bd b2db e23c b6a2 e13d f19a 15bd
0.04333345 0.0439111 -0.033952873 0.1470436 0.06827584 -0.015325418 0.07267768 -0.0006842051
0.039133046 -0.042034794 0.111590914 0.053575862 0.092903405 0.089270025 -0.0801512 -0.06926412
-0.08648418 -0.010685408 0.009372206 0.04986824 -0.032771654 0.030829107 0.13014844 0.0077392375
-0.00020762772 0.037858218 -0.019051353 0.006325892 0.07459663 -0.049109224 -0.089466535 0.01219136
-0.036178946 0.08700926 -0.07785719 0.098056085 -0.038848713 -0.038275644 0.10651377 -0.008861388
0.002768991 0.061075374 -0.05027682 0.078999765 -0.05279382 -0.033003252 0.073627435 -0.031625923
0.036203854 -0.104126945 0.058257192 -0.05715739 0.014642022 0.13419288 -0.07335772 -0.019994382
-0.113145635 -0.07698412 -0.10077597 -0.012367542 0.07529677 0.034228664 -0.035431605 -0.003202339
-0.0955995 -0.051408913 -0.083981454 -0.08174591 0.06559578 0.04892838 0.020200375 0.052974697
-0.014380237 0.13490659 0.1275086 0.09345237 0.08614274 -0.011197466 0.09919781 -0.06954335
-0.0052153976 -0.07129736 -0.07329847 -0.017604826 -0.04657309 0.059579 -0.0062131933 0.063717835
0.113528475 0.11900915 0.12147799 -0.056084927 0.11548436 -0.11077081 -0.10130113 -0.021088846
0.06368798 -0.08827709 0.044405986 -0.097439244 -0.10425462 -0.07965113 0.014302387 -0.017963484
0.08184104 0.1274335 -0.10883881 -0.0012053915 0.05893896 0.045944862 -0.047683857 0.0717911
0.0975886 -0.06438565 0.14966811 0.10884751 -0.08650065 0.14902247 -0.0713936 0.032394756
0.06455198 0.077275366 -0.08925969 -0.05694737 0.069695 -0.025482072 0.006242292 0.0891501
0.050558303 0.13194296 -0.13751331 0.010045232 -0.07653807 -0.08228068 -0.0421393 -0.05821605
-0.12675881 -0.12349407 0.11117335 0.013913579 -0.0129088 -0.013092658 0.011665386 -0.1279638
-0.06916997 -0.08631937 0.0300945 0.009140924 -0.06426253 0.054768085 -0.02657747 -0.07586442
-0.1012117 -0.0155127365 0.13198733 0.011179839 -0.07668846 0.07756 -0.051158607 0.05193048
-0.0443084 0.06156894 -0.101922624 -0.105320275 0.065830335 -0.04304623 0.04401598 0.09914875
-0.030743772 0.022781862 -0.09759942 0.12027631 -0.0997733 0.09546992 -0.008832528 0.027478894
0.022893671 0.09060272 -0.013780737 -0.044077482 -0.05940663 0.025033308 0.0329805 -0.101035334
0.019480966 -0.08667653 -0.10083251 0.05466936 -0.10363836 0.025010249 0.096210025 0.11433912
0.12453189 0.035122946 0.062646605 0.05274433 0.02288561 -0.0106797675 -0.05635717 0.025243297
-0.1055533 -0.06332851 -0.03376124 -0.04781643 -0.108898506 -0.10496729 -0.075507395 0.11014754
-0.06775163 -0.054657683 0.111833625 -0.060288884 -0.05072879 -0.092310004 -0.047550272 0.042809825
-0.104249716 0.067575 -0.006612048 0.07633357 0.004273227 -0.116061665 0.08673604 0.09494709
-0.039296612 0.0063030687 0.020320933 -0.030962449 0.055925626 0.007962508 0.096921645 0.10510756
0.0032533794 -0.07925104 -0.016103951 0.0039038593 -0.0957724 0.075445265 -0.07243199 -0.043475796
0.12133719 0.014377274 -0.027618624 0.10033479 -0.009465537 0.058802158 0.023066165 -0.13574733
-0.09885028 -0.08629652 0.1073857 -0.104589134 -0.056811064 0.02769265 0.11017363 -0.036524717

lstm.weight_ih_l0_reverse f4 [256, 34]
00000000: affa 69bd 2e34 363d cd09 093e 5894 91bd
00000010: 6002 b1bd 6746 de3c 583d b7bc 6330 093e
00000020: 721c d7bc 9d1d db3d eaa3 b73d b59f bf3d
00000030: be92 c33d 0500 19bc c91d 2abd 9386 42bb
00000040: cebb 5bbd 411a 283d 6707 99bd 9167 0d3e
00000050: 5d5f 383d a6b4 ccbd 7b41 d23c 7abd 57bd
00000060: 0dd5 4dbc 7fe0 3e3d 9e6a c63d 34bb 863d
00000070: 0abc ab3d e031 6fbd 3950 3abc 55af 64bd
00000080: 6df4 cb3a 36d9 b8bd 581f 3d3c 3652 a83c
00000090: 692a 8e3d 56bc a8bd 785d 9dbc d367 62bd
000000a0: 373a 88bc b6b1 eebc 7436 283b 5853 0f3c
000000b0: bf40 bebd 1d84 e9bd 1d83 893d c152 0b3c
000000c0: 12f3 9ebc 949f c5bd 5ef1 883d 9e2b 52bc
000000d0: eae9 9a3d e757 29bd 6d8e 4e3d 73d3 5f3d
000000e0: 931c 4dbd c9ad d33d 4eee fb3d 2351 60bd
000000f0: d667 a1bb 7cd7 7ebd 2fea 8ebd f2a1 e13d
00000100: 0205 b9bd e1c0 93bc 7e9d c7bd 7ca0 e23d
00000110: 4ad9 bc3d 4eff fe3d 256b 79bd 6836 983c
00000120: f3fa 683d 9dd2 a13d 8ebe a4bc 03c9 4dbc
00000130: 129f 123e ce8c 93bb 1b11 8abc 921f bf3c
00000140: cd9e 1d3e 6910 0f3e 4cc4 ba3d 475e d3bc
00000150: 3dd6 4bbd 2476 2cbd f66e fa3b bf9e a93d
00000160: 757d 8cbd 6d07 93bd a7ac 863d fd8d fabc
00000170: f6e3 62bd 1d14 bf3d 43ba f2bc 92f9 473d
00000180: 3b7b 19bc 6e6f aabd 7979 c3bc e072 d63b
00000190: 71ce 093e 6510 fe3d 5383 3f3d 2d7c a33b
000001a0: 1a03 3cbd 618b d73d 6325 3ebd 7388 efbc
000001b0: b2e2 823d e04d a2bd 726f efbc 6e7e a6bd
000001c0: efab e2bd 28e4 9e3c 764a 0c3e c193 d53d
000001d0: c69c 773d 1208 833d d430 fa3d 2eed f33d
000001e0: d253 0d3d 6c81 a8bd bc09 efbb 10f9 37bd
000001f0: 695f 073d 3298 153e 5d77 403d d183 c23d
00000200: 2db9 87bd 5fcc 3b3d 9394 a43d 5674 153e
00000210: c61d 8abc 7470 813d 1f05 8d3d f737 91bd
00000220: 350b ed3d 18b0 ddbd d5f6 b13d 7b8e 01be
00000230: f26f e1bd 028e d83d a975 97bd 8045 a23d
00000240: a0c2 f9bd f944 bf3d 9be4 9cbd 85ac b9bd
00000250: 6ee8 e2bd 2397 183d 10b1 16bd 8c6a a2bc
00000260: 6075 d23d 691e 113d 2642 24bd 3f4c 9fbd
00000270: 8213 a0bd eb6d c0bd 6fbb e7bd 69cd 9f3d
00000280: c7ca 303d 6348 d93d 70eb b2bd e556 e13d
00000290: 9e10 acbd 04bc ccbd 3764 fd3d 16df 93bd
000002a0: 6417 183d 5ada 963d b23d 063e d46b 69ba
000002b0: 8d75 2cbd 9773 633d df0c a3bd 87fc 0abd
000002c0: 224e 613d ed65 abbd ed22 073e 5f19 e33d
000002d0: dd5a f83d f176 503d b08f 0d3e 1f98 ee3d
000002e0: c5bb 8fbd 6d51 803d bb2a 87bc 8d7d f93d
000002f0: 9d5a db3d 0767 58bd edf7 c43d bea3 0a3e
00000300: a958 ca3d 50d9 9e3d 2e4e b5bd fcb9 81bd
00000310: 5ca5 98bd c090 1abb e41d 033d ac20 b63d
00000320: 257f 803d 6a5d aebb e146 23bd aa9a 81bd
00000330: 7c78 afbb 60e0 4b3d 18ad b13d a3ea 293e
00000340: 7281 0abd e643 33bd 87a3 b1bc 2e25 2a3e
00000350: 9682 3d3d 2ff7 533d 091f 01be 2451 8dbc
00000360: 2f11 e43d 3770 25bd 82ff 93bd 5ab4 89bd
00000370: f5e8 2abd ec1b 46bd 07a3 2e3d 6f32 85bd
00000380: 23c1 0b3d 1761 493d 8bff 9fbd 3c54 39bc
00000390: c101 a33d 8106 f83d 4e2c a4ba eb69 71bd
000003a0: d28f ab3d 0cd6 173e cfb3 d1bc 6917 bd3d
000003b0: 2d18 f83c 59f9 143e fb77 ebbb 9048 63bd
000003c0: 669d 93bd 53f0 dc3d 4210 b6bc c015 12bd
000003d0: 1046 e03d 6122 4e3d ba08 8b3d 5926 cbbd
000003e0: fca1 8a3d 026f 9a3d 5369 a2bd 3f57 ec3d
000003f0: 00c0 083e b2c6 a5bd 7fb9 203c 2492 98bc
-0.057123836 0.044483356 0.13382645 -0.071083724 -0.08643031 0.02713318 -0.022368118 0.13397364
-0.026258681 0.10699008 0.08966811 0.093566336 0.09549473 -0.009338384 -0.04153231 -0.0029682263
-0.0536459 0.041040663 -0.07472115 0.13809039 0.04501282 -0.099953935 0.02566599 -0.052670933
-0.012563002 0.046600815 0.09688304 0.06578675 0.08385475 -0.058397174 -0.011371666 -0.055831272
0.0015560515 -0.09025805 0.011543117 0.020547014 0.06941683 -0.08239047 -0.019209608 -0.055274796
-0.016629322 -0.029137474 0.0025667222 0.008747898 -0.09289693 -0.11402152 0.06714461 0.008503617
-0.019403014 -0.09649578 0.06686662 -0.012827782 0.07564147 -0.041343596 0.050428797 0.054645013
-0.05007608 0.10335881 0.123013124 -0.054764878 -0.0049257083 -0.06221722 -0.06978261 0.11017217
-0.09034158 -0.018036308 -0.09746836 0.11065766 0.09221132 0.12451039 -0.060893197 0.01858063
0.05687995 0.079014994 -0.020110395 -0.012560132 0.14318493 -0.004502869 -0.01685386 0.023330484
0.15392609 0.13971104 0.09119472 -0.02580179 -0.04976486 -0.042104855 0.007642622 0.082822315
-0.068598665 -0.07179151 0.065758996 -0.030585283 -0.05539318 0.09330008 -0.029629832 0.048821993
-0.009367759 -0.08322035 -0.023861634 0.006544456 0.13457657 0.12405471 0.0467561 0.004989168
-0.045901395 0.10524631 -0.046422374 -0.029239869 0.06390895 -0.0792501 -0.029227946 -0.08129583
-0.1106795 0.019395903 0.1370028 0.104285724 0.060452245 0.06398024 0.122163445 0.11910473
0.034503765 -0.0822781 -0.0072948616 -0.04491526 0.033049975 0.14608839 0.046988834 0.09497798
-0.06627116 0.0458492 0.08036151 0.1459516 -0.0168599 0.06320277 0.068857424 -0.070907526
0.11574403 -0.10824603 0.086896576 -0.12652008 -0.1100768 0.10573961 -0.07395489 0.07923412
-0.12195325 0.09339327 -0.076607905 -0.090661086 -0.11079489 0.03725351 -0.036789954 -0.019826196
0.10276294 0.035429392 -0.040102147 -0.07778215 -0.07816221 -0.09395965 -0.11315047 0.07802851
0.043162134 0.1060951 -0.087363124 0.11002902 -0.08401607 -0.09996799 0.1237263 -0.07220285
0.037131682 0.07365866 0.13109472 -0.0008904312 -0.042104293 0.055530157 -0.07961439 -0.033932235
0.055006154 -0.0836905 0.13196917 0.110888235 0.12126706 0.05089468 0.13824344 0.116501085
-0.07018236 0.06265531 -0.016499868 0.1218215 0.107106425 -0.05283263 0.096176006 0.13539025
0.09880192 0.07756293 -0.08852802 -0.06334302 -0.07453415 -0.0023584813 0.032010928 0.088929504
0.06274251 -0.0053211944 -0.039862517 -0.06328328 -0.005354939 0.049774528 0.08675593 0.16593413
-0.033814855 -0.043765925 -0.021684421 0.16615745 0.046267115 0.051749405 -0.12609495 -0.017250605
0.1113609 -0.04039022 -0.072264686 -0.067238525 -0.04172607 -0.048366472 0.042635944 -0.0650376
0.034119736 0.049164858 -0.07812413 -0.011311587 0.07959319 0.121106155 -0.0012525411 -0.058938902
0.08377041 0.14827746 -0.025598435 0.09232981 0.030284965 0.14548244 -0.0071859336 -0.055489123
-0.07207756 0.10788026 -0.02222455 -0.035665274 0.10950863 0.050325755 0.06788774 -0.099194236
0.06769177 0.07540704 -0.07930245 0.11540078 0.13354492 -0.08094539 0.009809851 -0.018624373

lstm.weight_hh_l0_reverse f4 [256, 64]
00000000: 4ab3 ec3d f391 c23d a44f da3d 0427 9bbc
00000010: d79f f23d d29f c73d 3343 c6bd 5515 843d
00000020: f712 003d 80a1 b03d 5e77 d6bd 29a6 713c
00000030: 3ba9 abbd 3137 fabd 4fa3 413d 8917 dcbd
00000040: 2481 ab3d 13f8 6cbd e77f 13be dc22 8abd
00000050: e025 e0bd f8d8 52bd 6ed8 3dbd 3028 83bd
00000060: d407 d2bc 3667 313d f995 09bc aed5 f5bd
00000070: 46c8 e33d c33e 29bd f02c a63c 7a70 293e
00000080: a8c8 e13d f063 5fbc b82d 0dbe 42d0 0f3d
00000090: b406 f53d 87ee eb3d ad19 e3bd aa9f fc3d
000000a0: 41cb 2c3d 0561 91bc 96ed 37bb 42b8 4a3c
000000b0: 763b dcbd 96f5 053e acc5 883d 11e7 883d
000000c0: 7225 bc3d a0a7 d13d 4aca 91bd 1381 e53a
000000d0: 6dd8 723d e806 8a39 0cb7 aabd 0376 123d
000000e0: 6edd 193d a1f3 1a3d eca5 4dbd 912e 6abd
000000f0: 0f57 18bd ae5e 7c3d d737 87bd ad60 c9bc
00000100: 0280 863c 1784 823d 91f5 a0bd a82e 873d
00000110: a79f 8ebd 7af5 4c3d 3626 1ebd 267f 243d
00000120: 7d32 8e3d 3fec 1f3d fe8c 76bd 60a4 513d
00000130: 5c05 923d 0fe5 06be 42de 50bc 56a6 58bc
00000140: e873 71bd 566c 423c b840 8cbc 7723 aebd
00000150: a915 fbbd 7357 48bd e7bf da3c a469 27bc
00000160: cfd1 0cbd 198f 9bbc 93f5 8fbd 3189 f73d
00000170: 0d1d 1b3e 6790 c73d 5fd5 a63d 04ee 66bc
00000180: 3fc8 cdbc bd95 47bd 58cb 22bd afd7 723d
00000190: af57 7bbd 1e1f c7bd d959 e03d 0956 003e
000001a0: b8fa edbc 51d4 57bb 1972 a03d 0b08 013d
000001b0: 7784 f53b 138c 123d 8b90 8d3b 5e7a 783b
000001c0: f027 df3d 756b d2bd 74b9 17be e197 94bd
000001d0: cc19 b5bb fb32 19bd d9ed bb3c 7f01 5c3d
000001e0: 7b7f 9cbd 76a3 d9bd 89d9 db3d 12a8 933c
000001f0: 629c c63d 4a71 443d 37c5 85bc 7df9 adbd
00000200: 0330 033e dd4c 89bd 5acb fe3d 6e44 ab3d
00000210: e594 093e e178 103e f03f 0a3c 9ca7 7abd
00000220: 9543 ef3d 3d1c 073e 11a4 093d 7640 bfbd
00000230: 5ba8 013e 3315 50bd 37c8 cabb 7677 67bd
00000240: 0c66 3e3d c3b7 05be 8fab 1abe 80fc d83d
00000250: 9347 a7bd 713b fb3c 40d2 65bd 1479 86bd
00000260: ac5e 833d 2318 a9bc 70d9 14be 78b0 31bc
00000270: 4456 4dbc 5b60 b3bd 8680 203e a005 0c3e
00000280: 1a8e 743d 4026 cb3c 8a20 a3bd 3276 eebd
00000290: eee0 f3bc e0c0 f2bd e23d 9c3d 97f0 3bbd
000002a0: 4c7a 4fbd 45bb fc3c 5c78 50bc 1004 923c
000002b0: e4e1 cb3c 52da 763c c816 133e 0ec4 08be
000002c0: 9413 fbbc b1bb 393d 3870 7fbd cfe8 163d
000002d0: 7c26 28be 0e32 483d acb1 0c3d e867 4d3d
000002e0: cc4f 2cbd f0e8 09bb 55b2 f9bc de38 0abe
000002f0: 5eed 0e3e d585 3f3c 14cb b53d 3931 11bc
00000300: 6d69 473d 87b0 83bd 0c8d 163e 41c0 733d
00000310: 3bac edbd 4d21 f63d 96b4 b9bd 56fe 99bd
00000320: 4c39 2b3d c429 863d b7b7 26bd 391b b9bc
00000330: c04b 633d f2cc 74bd 6bf3 7e3d 8ccb b53d
00000340: 3fb0 133e d26a 8abb deb9 8b3d 7e32 163e
00000350: 508e d6bc 5a99 b43d 4619 11be f6e1 08be
00000360: f5c2 a03d f913 43bd 919f 003d bcc6 b33d
00000370: f655 8dbc 423f c3bd ea14 1b3d 750b 983d
00000380: 2365 543d 5955 c03d 0d5d bebd ab8b 1bbd
00000390: 0639 1ebd a45a 813d 1309 523d d46a 293d
000003a0: 579f d03b a21e e0bc 309c 863d 04a8 083d
000003b0: c51d 153e 369e 7a3c 714e e93c 5049 dcbd
000003c0: d1eb 1f3e 5fe3 eebc 4d74 bbbc 8478 a0bd
000003d0: 3669 813d 2389 c5bc aa9a be3d b45d 903d
000003e0: 66b2 113e 6b7d fd3c 1d76 693d aa1b 4cbd
000003f0: d393 073d 075e e5bc b0f5 4a3d a85e 17bd
0.11557634 0.09500494 0.106597215 -0.018939503 0.11846893 0.0974728 -0.09680786 0.06449381
0.031268086 0.08624554 -0.10471986 0.014749088 -0.083818875 -0.12217558 0.047274884 -0.107466765
0.08374241 -0.05785377 -0.1440426 -0.0674493 -0.10944724 -0.05147645 -0.04634898 -0.064041495
-0.025638498 0.04331132 -0.008397573 -0.12003647 0.111221835 -0.04131962 0.0202851 0.16546813
0.110246 -0.013634667 -0.13786972 0.03511072 0.11964169 0.11520105 -0.11088882 0.12335141
0.042186026 -0.017746458 -0.0028065196 0.012373032 -0.10753529 0.13081965 0.06678328 0.066846974
0.091868296 0.1023705 -0.07118662 0.0017509781 0.05928843 0.00026326557 -0.08335695 0.035757076
0.037564687 0.03783 -0.050207064 -0.057173315 -0.0371924 0.06161373 -0.066024475 -0.024582231
0.01641846 0.063728504 -0.07859338 0.06600696 -0.06964045 0.050038792 -0.03861066 0.04016032
0.069432236 0.03904366 -0.060193054 0.05118215 0.071299285 -0.13173316 -0.012748303 -0.013223251
-0.058948427 0.01186665 -0.017120704 -0.08502858 -0.12259991 -0.048911523 0.026702834 -0.010218058
-0.034379777 -0.018989133 -0.070292614 0.12086714 0.151478 0.097443394 0.08146166 -0.014094833
-0.025119899 -0.048726786 -0.039744705 0.059287723 -0.06136292 -0.09722732 0.10954637 0.1253282
-0.029050216 -0.0032932947 0.078342624 0.03150181 0.0074925977 0.035778116 0.0043202094 0.0037914733
0.10896289 -0.10274402 -0.14816839 -0.07255531 -0.005526757 -0.037402134 0.022940563 0.053712364
-0.076415025 -0.10626881 0.10734851 0.018024478 0.096977964 0.047959603 -0.01632939 -0.08494852
0.12811284 -0.06704114 0.1244113 0.08362661 0.13435705 0.14108612 0.008438095 -0.061195
0.11682812 0.13194366 0.03360373 -0.09338467 0.12661879 -0.050801467 -0.0061884183 -0.05651041
0.04648404 -0.13058381 -0.15104507 0.105950356 -0.081679486 0.030667992 -0.056108713 -0.065660626
0.064145416 -0.020641392 -0.14536071 -0.010845296 -0.012532774 -0.08758613 0.15674028 0.13674021
0.05970583 0.024798512 -0.07965191 -0.11643638 -0.02977034 -0.11853194 0.07628991 -0.04588374
-0.05065374 0.030851016 -0.012724008 0.017824203 0.024887986 0.0150667 0.14364159 -0.13356039
-0.030648984 0.045345012 -0.06236288 0.036843117 -0.1642093 0.04887586 0.03434913 0.05014792
-0.042068288 -0.0021043383 -0.030480543 -0.13498256 0.13957736 0.011689623 0.08876625 -0.008861833
0.048684526 -0.06430154 0.14702243 0.05950952 -0.11605116 0.1201807 -0.09067647 -0.07519214
0.04180269 0.06550935 -0.040702548 -0.022595989 0.055492163 -0.059765764 0.06224386 0.08876714
0.14422701 -0.0042241598 0.06822561 0.14667699 -0.026190907 0.08818312 -0.14169797 -0.13367447
0.07849685 -0.04762647 0.031402174 0.0877814 -0.017252903 -0.0953355 0.037861742 0.0742406
0.051854264 0.09391279 -0.09295092 -0.037974995 -0.0386286 0.063161165 0.051278185 0.041361645
0.006366651 -0.027358357 0.06572759 0.033363357 0.14562137 0.0152965095 0.028479787 -0.10756171
0.156173 -0.029161153 -0.022882605 -0.078354865 0.063188955 -0.024113243 0.093068436 0.070491225
0.1422821 0.030943593 0.056997407 -0.04983107 0.03309996 -0.027998937 0.049550712 -0.036955506

lstm.bias_ih_l0_reverse f4 [256]
00000000: 21da f43d c148 4d3d 609c 91bd 5ed7 99bd
00000010: 608f adbd d903 ef3b e533 d43d 48d5 65bd
00000020: e8a4 253e a7ae 013e 1270 d73d b1b5 4abd
00000030: 4871 e6bb 8879 8dbc 4e5e babd be27 cfbd
00000040: 63ee 153d c125 51bd 82f4 9c3d 31ab 4d3b
00000050: e7ba 813d 3c55 8d39 6cf3 c13d b8e2 c1bc
00000060: 2562 e63d 6c6b edbd d0e4 1dbd e833 a03d
00000070: 54f2 73bc e4ef 9ebd 47d1 91bc 98ae 493d
00000080: a1f8 66bd ca61 18bd e3fd e93d 1355 70bd
00000090: 3ddf 91bd 9824 333c 84b5 be3b 0193 6e3d
000000a0: 6b70 493d af65 e53c ec6d a13d 0fc3 c5bc
000000b0: 8248 d9bd 7e6b d63c b765 bfbd bf12 ea3b
000000c0: 478f b53d 86f3 b6bc 27fb 203e 418d 2cbd
000000d0: 0468 44bc 2ef4 a23d 9666 ec3c 2a4b 5bbd
000000e0: 1058 a0bd 9567 9a3d f518 20bc a299 973c
000000f0: 31b4 9abd 7edc 57bd 7a87 283d b156 fdbc
00000100: 20d2 fe3d cfe2 3c3d 1503 ad3d 612a cbbd
00000110: d614 e33d a413 91bc c8fe 85bb 8c4d 92bd
00000120: 9dc9 803d 37e1 b13c bed9 423d bbc3 383c
00000130: 0b9f 90bc 1cf6 ddbc b13d 8ebd 4a1a adbd
00000140: 975b 013e 96b1 91bd 0fd4 f53b 9bf1 203e
00000150: 6214 8bbd 7721 303d 578a 28bd f12e bd3b
00000160: 18d0 7b3c b795 8ebb 7b8b 98bd bff8 e73d
00000170: 073b b2bd 946a 47bd 2e51 5dbd 8279 6fba
00000180: cf8c dbbd fc50 393d 09ef a8bc 67e4 acbd
00000190: ee49 e73d 1801 f0bd ae4e 35bd a9f6 893d
000001a0: 6d80 963d a454 ecbc 7058 1c3e 9ad8 943d
000001b0: 31af 93bd 2dac e03d b467 a93d 0af0 f13d
000001c0: be7d c03d a910 023d 7c19 74bd d5ba e93d
000001d0: f9b6 973d 6cfd a13d fe2c 0cbd 253b 32bb
000001e0: 54b9 8fbd 65b4 9abb 31b7 8c3c 0b34 74bd
000001f0: 63dd 233e 013d d33d b648 c9bc 1b9d c3bd
00000200: f4f7 f83d 9b78 973d 3724 d2bd 3f6e 77bd
00000210: 07d3 19bd e59e 9bbc cccd 75bd ff1a cc3d
00000220: 2d0f c2bd cd26 8cbd 6195 c03d 1237 213d
00000230: 35ab 8d3d 640d 51bc 0ed5 4a3d 5a07 efbc
00000240: fc7a f83b c52b c23d 9502 f5bd b2ff 933d
00000250: 1efd aebc 8316 14be 0b95 c33c 9b4b b93c
00000260: 7e3d ddbd f5f2 623d 174c ccbc 9bca 1d3d
00000270: 2215 f03c 4cd3 1abc 1bd3 d7bd 7898 473d
00000280: 6960 dbbd b71e 673c c912 b43d 571e ecbc
00000290: 7f15 c8bd f713 543d cc0d 713d 6cfb f93a
000002a0: ecdc 8f3d 3b5e dc3d b99e 933d a6db 8e3d
000002b0: 2cb1 173d 9bc1 583b 2bac d53d c0ed 3c3a
000002c0: f771 fb3d 856d 323c 0bca febc 3b12 a9bd
000002d0: 6d18 6b3d f5d0 a13c 0cee f4bd 3281 e8bd
000002e0: dc60 c63d 71a0 563a f930 7b3d 6a95 e13c
000002f0: 40d7 0a3b bb7b 21bd f1c6 7bbd 2c79 93ba
00000300: 618d 16bb f41f 973d 1e78 e73d becd 583d
00000310: 0462 333c c8a1 e23c 597d c73c 16a9 1d3d
00000320: 68bc d23d b903 b23d a313 8e3d 5e48 f13d
00000330: 1651 423d 1772 6e3c a6c2 893d d530 3bbd
00000340: a238 bcbd b6c0 7b3d a92d d2bc 89ab be3d
00000350: df40 13bd 1c54 6a3c 9260 36bd 7d78 143d
00000360: 4e76 073e 7419 113d 7f00 603c a9ff 863d
00000370: 52d8 793a 17cb 0d3d 5326 3abd c46b 92bc
00000380: b18b 1e3c 5bf2 c6bd 1456 7d3d 212e fe3d
00000390: 4c0d b33d bb7f 17bd d81a 9fbc 308e 0fbd
000003a0: 8cc4 043e 5a0b af3d 0351 6c3c 02cc db3d
000003b0: ca2a c2bd c599 5a3d 43ec d5bd 8335 dcbb
000003c0: fa30 333e 70b6 0d3d 4526 08bd 1f1f bfbc
000003d0: ed09 3ebd 846f 9d3c 2b8f c83b 5f6a 073e
000003e0: a1b3 493c 2085 3abc ea03 113e 07fc ae3d
000003f0: 7d34 1b3e 56b8 bbbd 2ec8 84bc a4d2 98bd
0.11955667 0.05011821 -0.07109904 -0.07511781 -0.08474612 0.00729416 0.103614606 -0.056111604
0.16176188 0.12664281 0.105194226 -0.04948968 -0.007032547 -0.017269865 -0.091000184 -0.10115002
0.036604296 -0.051061396 0.07663824 0.0031382556 0.06334477 0.0002695712 0.09470257 -0.023667678
0.11249188 -0.11592755 -0.03854829 0.078224 -0.0148893185 -0.07760599 -0.017799987 0.04923877
-0.056389455 -0.037202634 0.11425378 -0.058674883 -0.071226574 0.010934018 0.005819978 0.058245663
0.049179476 0.028002588 0.07882294 -0.024140863 -0.10609533 0.026174303 -0.093455724 0.007143348
0.088652186 -0.022332918 0.15720807 -0.042126898 -0.01198769 0.0795673 0.02885751 -0.05353848
-0.078292966 0.07539288 -0.009771575 0.018505875 -0.075539 -0.052700512 0.041144826 -0.030925127
0.12442422 0.04611474 0.084478535 -0.099201925 0.110879585 -0.01770956 -0.00408921 -0.07143697
0.06288455 0.021713836 0.047570936 0.0112771345 -0.017653963 -0.027094893 -0.069453605 -0.0845228
0.12632595 -0.0711395 0.007502086 0.15717165 -0.06790997 0.043000665 -0.041147556 0.005773418
0.015369438 -0.0043513435 -0.07448479 0.113267414 -0.08702665 -0.048685625 -0.054032497 -0.00091352325
-0.107202165 0.04524325 -0.020621793 -0.08442002 0.11293398 -0.117189586 -0.044264488 0.067365
0.07348714 -0.028848954 0.15268111 0.07267876 -0.072111495 0.1097034 0.08271733 0.11813362
0.093989834 0.03175417 -0.059594616 0.114125885 0.07407946 0.079096645 -0.034222595 -0.0027195897
-0.070177704 -0.0047212117 0.017177196 -0.059619945 0.16002421 0.1031437 -0.024570804 -0.0955145
0.12156668 0.073960505 -0.10260814 -0.060407873 -0.037554767 -0.018996665 -0.060010716 0.099660866
-0.09475551 -0.06843338 0.09403492 0.03935916 0.06917421 -0.01275954 0.04951959 -0.02917831
0.0075830203 0.094810046 -0.11963383 0.072265044 -0.02136093 -0.14461713 0.02387478 0.02261906
-0.10802744 0.055407483 -0.024938626 0.038523298 0.029306952 -0.009449791 -0.10538312 0.04872939
-0.10711748 0.014106444 0.087926455 -0.02882306 -0.09769725 0.051776852 0.05885105 0.0019072122
0.070245594 0.107601605 0.07208008 0.06975488 0.0370342 0.0033074382 0.10433229 0.00072070584
0.122775964 0.010890369 -0.031102201 -0.0825543 0.05739634 0.019752959 -0.11959466 -0.11352767
0.09686443 0.000818736 0.061326 0.027537066 0.0021185428 -0.03942464 -0.061469022 -0.0011251322
-0.0022972452 0.073791414 0.113022074 0.052930586 0.010948662 0.027665034 0.024351763 0.03849133
0.10289842 0.08692116 0.06937339 0.11781381 0.04744061 0.014553568 0.06726579 -0.045700867
-0.09190489 0.06146308 -0.025656538 0.093100615 -0.035950538 0.01430228 -0.04452569 0.03624772
0.13228723 0.035424665 0.013671993 0.06591732 0.00095308304 0.03461751 -0.045446705 -0.017873652
0.00967686 -0.097141944 0.06184967 0.12411142 0.087427706 -0.036987048 -0.01942198 -0.03504771
0.12965602 0.08547087 0.014423612 0.10732271 -0.094808176 0.053369302 -0.10445454 -0.0067202463
0.17499152 0.034597814 -0.03323962 -0.02333027 -0.046396185 0.019218214 0.0061205826 0.13224171
0.012310893 -0.011384279 0.1416165 0.08544164 0.15156741 -0.09166019 -0.016208734 -0.074620515
