model/abse_model.pth (torch, 210997 bytes, 11 tensors)

lstm.weight_ih_l0 f4 [256, 34]
000000 d0 63 ed bd f8 c3 d6 3d 2e 20 b7 bb 85 4b b1 bd
       -0.11591303 0.10486597 -0.005588553 -0.08656982
000010 29 f9 60 3d ad 62 a2 3d 05 7e 00 3e 02 f2 d1 bd
       0.054925118 0.07928977 0.12548073 -0.102512375
000020 26 bb 73 3c 09 26 9c bd 9c 53 27 bd 3e d1 25 3d
       0.014876163 -0.07624442 -0.04085122 0.040482752
000030 e7 c3 59 bd 2f df aa bc c9 3e 86 3d a7 5f d6 3d
       -0.053165343 -0.020858375 0.06554944 0.10467463
000040 12 d9 aa bd ca 22 48 3d d5 f5 ff 3d b2 ba d2 bd
       -0.08342184 0.048861302 0.124980606 -0.102895156
000050 b3 76 02 be b4 21 09 3c e8 e1 cc 3d d9 8a 5d bd
       -0.12740593 0.008369852 0.10004026 -0.054087494
000060 1d 97 53 bd f6 17 b4 3d 7e f1 5c 3d a6 b6 ed bd
       -0.051657785 0.08793633 0.053941242 -0.11607103
000070 5c 6f dd bd 22 a4 24 3d fb f5 e6 3d 14 b6 88 3a
       -0.10812256 0.04019559 0.11277386 0.001043024
000080 a0 57 3e bc 64 fe d9 bd f4 74 6e 3d 48 25 7e 3d
       -0.011617571 -0.10644224 0.058217004 0.062047273
000090 74 94 91 bd 8a 3b 0a be 17 37 fd bd 96 aa 7e bd
       -0.07108393 -0.13499275 -0.12364023 -0.062174402
0000a0 ce 35 4c bd 8f 36 af 3d e0 2a 4a 3d 9b 47 db 3c
       -0.049856 0.08555328 0.049357295 0.026767543
0000b0 b7 01 64 bd 2d 90 74 3d f8 45 8b 3d 52 c4 94 3d
       -0.055665698 0.05970781 0.06800455 0.07264008
0000c0 bf b6 6d bd b2 fd f0 bd a4 a7 84 bc 4b 71 0e 3d
       -0.05803561 -0.117671385 -0.016193219 0.034776013
0000d0 f6 a9 c4 3d 04 ca 20 bd d6 f9 37 bb 28 10 05 be
       0.0960273 -0.039255157 -0.0028072498 -0.12994444
0000e0 58 a7 07 3d df 05 01 be eb 47 05 be 05 37 a6 bc
       0.033118576 -0.12599896 -0.13015716 -0.020289907
0000f0 b3 34 6a bd b8 ad 68 3d 12 04 fd bb dc c8 f7 bd
       -0.057179164 0.056806296 -0.0077214325 -0.12098858
000100 42 22 b2 bd c5 d7 00 be ca 0d 63 bd 70 71 02 bc
       -0.086979404 -0.1258231 -0.055433072 -0.007961616
000110 de 3b a6 3c b0 6a 15 3d 46 20 be bd 1a 1c 7f bd
       0.020292219 0.0364787 -0.092834994 -0.06228266
000120 d0 79 4c 3d de c4 ae 3c 50 b4 24 3d bd 40 83 bc
       0.049920857 0.021334108 0.040211022 -0.01602208
000130 d1 7f 6e bd 0d a0 b6 bd d0 cb 2a 3d 20 8a ce 3c
       -0.058227364 -0.08917246 0.041698277 0.025212348
000140 8a 8f 87 3d 60 35 47 3d 5d 37 ae bd 7d 4c 3b 3d
       0.06619175 0.048634887 -0.085066535 0.04572724
000150 24 b5 48 3d df 56 d4 bd 5d a6 a3 3d 32 9f f4 bd
       0.049000874 -0.10368132 0.07990716 -0.119444266
000160 38 bf 88 bc 14 db 8e 3c 8c d5 ca bd 81 ec 19 be
       -0.016692743 0.017438449 -0.09904012 -0.15031625
000170 38 62 05 bc d7 4d e8 bd 1d 75 92 bd 6b 44 e1 bd
       -0.008141093 -0.11342972 -0.07151244 -0.10999378
000180 44 32 96 3d fe 02 18 be d4 f0 7a b9 e9 cb 62 3d
       0.07333806 -0.14844891 -0.00023931573 0.055370245
000190 6e bd a2 3c dd 30 49 3d 3a c0 b9 bd fc 6b bb 3d
       0.019865718 0.049118865 -0.090698674 0.09151456
0001a0 d0 7d bf 3c 42 4d 42 3d 3c aa 50 3c b3 2b 4a 3d
       0.023375422 0.04743696 0.0127359 0.04935808
0001b0 79 7e 39 3d f3 84 e8 bd e5 5a 9d 3d b4 a1 9f 3d
       0.04528663 -0.11353483 0.076833524 0.07794514
0001c0 65 1f 06 be db 1b b7 bd cd 05 c8 3c a6 b0 38 bd
       -0.13097914 -0.0894086 0.024416829 -0.04509034
0001d0 ce 47 6a 3d 7d 38 bf bb 4f 7f 35 3d d4 1c 5b 3d
       0.057197385 -0.0058355913 0.044310864 0.05349429
0001e0 4e ca 3d bb 22 b2 e0 bd 2b 4d 8e 3d 0f 43 7a bd
       -0.0028959694 -0.10971476 0.06948312 -0.06109911
0001f0 4c 93 55 bd 2f 43 30 3c 56 25 d7 3c 0f de 5c bc
       -0.052142426 0.010758205 0.02626292 -0.013480677
000200 4b cf ad bd 64 96 ec 3d 4e dc 18 3d a1 dc b9 3d
       -0.084868036 0.11552122 0.037319474 0.09075285
000210 23 6a f1 bd ed d7 b8 bd a0 2e 11 be 34 94 aa bc
       -0.11787822 -0.090255596 -0.14177942 -0.020822622
000220 3f e2 c3 3d 9a 50 82 bb 0e 39 26 bd 0c 23 15 3d
       0.095646374 -0.0039768936 -0.040581755 0.036410376
000230 c1 9d 93 3d ff d0 aa bd 91 23 f8 bb 51 0b 42 bc
       0.072078235 -0.08340644 -0.007572599 -0.011843518
000240 9f 12 cd bd e3 fc ff bd e5 a2 3e 3d cd 30 af bc
       -0.10013317 -0.12499406 0.046542067 -0.021385575
000250 88 d6 c5 bd ec f7 a1 3d d4 98 23 3d de b2 e6 3d
       -0.09660059 0.079086155 0.03994067 0.11264585
000260 c3 0d bc 3c 29 b5 99 3d 80 00 20 be f9 ff fb 3d
       0.02295578 0.07505257 -0.1562519 0.12304682
000270 e1 df 4d 3d e2 4d cd 3c 28 97 89 bd e1 20 09 3d
       0.050262336 0.025061551 -0.06718284 0.03347862
000280 c9 57 bc 3c 16 53 fa bc 10 98 1c bd 68 5b f0 3d
       0.022991078 -0.030557197 -0.038230956 0.11736184
000290 66 63 a1 bd 6f 69 d8 3d bc 10 71 bc 81 ea 16 3c
       -0.07880287 0.10566985 -0.014713462 0.0092111835
0002a0 2d a7 9f 3d 3e 0a af bc 37 79 e5 3d 35 3e 38 3d
       0.07795558 -0.021367189 0.112047605 0.0449812
0002b0 70 55 0b 3e 48 7e 68 bd 0f 2c 44 3d c1 6f a6 3d
       0.1360681 -0.056761056 0.04789358 0.08126784
0002c0 39 ed b8 bc fd a7 d6 bd 79 2e 11 3d d3 aa 65 bd
       -0.022574054 -0.1048126 0.03544471 -0.056071114
0002d0 d8 1c c9 3b 27 f7 0c bb d9 80 96 3d aa 85 8e 3d
       0.0061374716 -0.002150962 0.073487945 0.06959088
0002e0 33 9f f2 3c e3 70 60 bd 73 bd 95 bc d2 88 f0 3c
       0.029616928 -0.054795157 -0.018278813 0.029362116
0002f0 aa 87 ba 3c 90 af db bd 3e 82 42 bc bf 3d 47 bd
       0.022769768 -0.10726845 -0.0118718725 -0.04864287
000300 3c cd b5 3d 37 93 83 3d ef 5a b4 3d 01 35 ab bd
       0.08877036 0.064245634 0.08806407 -0.08359719
000310 17 ff c1 3d 4b 04 9f bd 99 b1 90 3a cd b9 9b bd
       0.09472483 -0.07764491 0.0011039256 -0.07603798
000320 07 b2 b4 bd 5a 11 3a 3d 39 7c 73 bd 53 43 a4 bd
       -0.088230185 0.045426704 -0.05944464 -0.080206536
000330 84 4f 68 bd dd 4a 48 3d fa 32 cb 3d f8 2f 37 bd
       -0.056716457 0.04889952 0.099218324 -0.04472348
000340 f4 25 94 3c 5e f2 be 3c f8 40 45 bd 03 7b c3 bd
       0.018084504 0.023308929 -0.048157662 -0.09544947
000350 58 76 0d bd 8f cc e6 3d b2 cd e5 3c e2 17 da 3d
       -0.03453669 0.11269485 0.028052185 0.106490865
000360 53 13 cd 3c 17 6a 14 bd d9 c9 bf bd ff 0b 75 3d
       0.025033629 -0.036233988 -0.09364671 0.059825893
000370 2e b8 2a bc f2 a1 c0 3c 40 d1 fa 3d d4 be 81 bb
       -0.010419888 0.023514722 0.122469425 -0.003959516
000380 9f d3 aa bd fe 66 f5 3d c8 e2 8f 3d f2 ef 6f bd
       -0.08341145 0.11982535 0.07025677 -0.05857844
000390 4b 75 88 bd ef e9 7a 3c 8c 47 86 3d 39 85 e1 3d
       -0.06662997 0.015314563 0.06556615 0.11011738
0003a0 7b 9b 90 bc 86 26 59 bd fd 4d 5f 3a e9 af b7 bd
       -0.017652264 -0.053015254 0.0008518396 -0.08969099
0003b0 16 4f 11 3c e4 e2 70 bd 69 d1 8a 3d bb 67 1a 3e
       0.008868953 -0.05881013 0.06778223 0.15078633
0003c0 e2 14 ea 3c 9d 9f a2 bc de 46 89 bd e0 53 2c 3d
       0.02857441 -0.0198515 -0.0670297 0.042072177
0003d0 f9 44 5a 3d b6 96 0f 3e bd 95 c6 3d f6 78 ac 3d
       0.053288434 0.14022335 0.09696529 0.08421509
0003e0 28 2e dc 3c 7b cc a7 3d d3 ce be 3d ee d2 77 bd
       0.026877478 0.081932984 0.09316792 -0.060503893
0003f0 3e 02 80 3c cd 94 ad 3d 12 b1 30 3d ae 2b 9c 3c
       0.01562607 0.08475647 0.043137617 0.019063797

lstm.weight_hh_l0 f4 [256, 64]
000000 98 68 c3 bc 71 b0 04 3e 5a 65 27 3c d5 bd e5 3d
       -0.023853585 0.12957932 0.010217035 0.11217848
000010 60 c3 54 3d 86 3d d7 3d 2c 2d cb bc 84 46 0c be
       0.051944137 0.105097815 -0.024801813 -0.13698775
000020 2a ff 11 3c 43 e2 52 3d 69 ce f2 bd eb d3 d8 bc
       0.0089109335 0.05148531 -0.11855776 -0.026468238
000030 b9 1a dc bd e3 f5 66 3c 66 1b 14 bc 0d e5 79 3d
       -0.107472844 0.01409671 -0.009039735 0.061009455
000040 84 d0 d6 bd 9e 5c c0 3d 76 ca 1a bd 9a 5e 2f 3d
       -0.1048899 0.09392665 -0.037790738 0.04281483
000050 dc 32 8a bc 4b 30 e2 bc a7 d7 ee bc b2 a8 95 bd
       -0.016869955 -0.027610919 -0.029155565 -0.07307567
000060 66 4e b3 3c f3 69 29 bc f9 b9 47 bb bb 66 2b 3d
       0.02188797 -0.010340202 -0.0030475839 0.04184602
000070 e7 89 88 3d 93 d5 ef 3d fb 06 d4 bb f5 20 5d bd
       0.06666928 0.11710658 -0.0064705587 -0.05398651
000080 8c 3f b4 3d 7d b2 8b 3c fa bd f0 bd 8f c3 8e bd
       0.08801183 0.017052883 -0.11754985 -0.069708936
000090 85 b4 63 bc 85 06 47 3c ce 02 47 3d e6 d0 1c bd
       -0.01389802 0.0121475505 0.04858666 -0.03828516
0000a0 10 33 21 be 23 2b 12 be 35 b3 bf bd bb 7a 95 bd
       -0.15742135 -0.14274268 -0.09360353 -0.072987996
0000b0 ba c0 3d 3d a2 c6 d9 bc 43 88 b3 bb 76 9c 63 bc
       0.046326376 -0.026583973 -0.00547889 -0.013892284
0000c0 52 26 05 3e 29 08 e1 bd 7d 78 97 bd 6f cc f9 3d
       0.130029 -0.109878846 -0.07396028 0.12197196
0000d0 48 af eb 3c 62 60 e8 3d 8d f9 eb bc dc 3c 26 bd
       0.028770104 0.113465086 -0.028805519 -0.040585384
0000e0 4e 83 65 bd 9f 48 ba 3d 6d b1 58 3d f8 ab dc bd
       -0.056033425 0.090958826 0.05290358 -0.10774988
0000f0 43 99 1b 3d 56 9e ac bc 04 28 ad bc 11 3f 49 3d
       0.03798796 -0.021071594 -0.021137245 0.04913241
000100 6b 34 e0 3d 3d 7f 75 bd a8 c8 a7 3c 98 46 54 3d
       0.10947498 -0.059935797 0.020481423 0.051825136
000110 f0 19 65 bd c1 8b e7 3c cc 64 16 bd 93 f9 51 bd
       -0.05593294 0.028264882 -0.03671722 -0.051263403
000120 cd 44 93 3d 42 fb a8 3d 10 37 07 be 2b 25 6f 3c
       0.07190857 0.082510486 -0.13204598 0.014596264
000130 ab 4a 01 bb 24 9d 9c 3d e1 f6 32 3c ef 39 4c 3d
       -0.0019728343 0.0764716 0.010923118 0.049859937
000140 48 2a 01 3e b0 ed f0 bc 8b 6e 80 3d 62 65 09 bd
       0.12613785 -0.029410213 0.062710844 -0.03354395
000150 eb 89 20 bc f9 40 e0 3d 0e f9 0d be f0 7b 92 bd
       -0.009798507 0.109498926 -0.13864538 -0.071525455
000160 2d 7a f9 bd 4b 82 b2 bd cd 0a 49 3d 04 4d 75 bd
       -0.12181506 -0.08716258 0.049082566 -0.0598879
000170 7c 06 b8 bd 63 2d 29 3d f7 b0 ea 3c 3a 97 15 bc
       -0.08985612 0.04130305 0.028648837 -0.0091302935
000180 9d ca 28 3c 3b 3b db bd bb d7 b8 3d 46 45 87 3c
       0.010302213 -0.10704657 0.09025522 0.016512524
000190 b8 3d ea 3d 45 a4 8f 3d 39 69 82 bd ce 6e b6 bd
       0.11437553 0.07013754 -0.06367726 -0.08907853
0001a0 83 56 b8 bd ec 7f aa bd 6c 70 82 3d 58 58 5d bc
       -0.09000876 -0.083251804 0.06369099 -0.013509832
0001b0 30 d5 8f 3d ac e9 b3 3c c3 b0 c4 bd c8 d7 75 bd
       0.07023084 0.02196201 -0.09604027 -0.06002024
0001c0 92 47 19 be b7 0c 5f 3c 6c 97 b2 bd 35 ee bf bc
       -0.14968708 0.013613871 -0.08720288 -0.023429016
0001d0 31 97 ef bc a6 05 93 3d 71 10 08 3e 53 97 e7 bd
       -0.029246898 0.07178812 0.13287522 -0.1130816
0001e0 b4 17 92 bd b8 62 f6 3d 79 6c e1 3c 22 80 8d bd
       -0.07133427 0.12030548 0.027517544 -0.06909205
0001f0 87 5a ed bc 21 6c b2 bd 96 cc 96 3c c7 67 9e 3d
       -0.02897383 -0.0871203 0.018408101 0.07734638
000200 5c d7 c0 bd 4b c3 8b bd 2e 62 a2 bb 55 04 09 3e
       -0.094160765 -0.068243586 -0.0049555516 0.13380559
000210 a8 c8 96 bc 36 c8 a3 3d 79 9c ab bd 49 f0 8e 3d
       -0.018406227 0.079971716 -0.08379454 0.069794245
000220 aa 06 b9 bc 25 d7 9a 3d 81 81 76 bd fe 27 f6 bd
       -0.022586185 0.07560567 -0.0601821 -0.12019347
000230 14 99 87 bd 3e 2b cc bd 0d f6 48 bd 99 87 78 3d
       -0.06620994 -0.09969185 -0.049062777 0.06067619
000240 f2 73 ea 3d 1f 8a 04 bd 83 2e d6 3c a8 43 14 be
       0.11447896 -0.032358285 0.026145225 -0.14478934
000250 77 6b 42 bd 20 07 ad bd ba 56 4f bd cd 7f b8 bd
       -0.047465768 -0.084486246 -0.05061982 -0.09008751
000260 d4 1a c8 bc c3 f7 d4 bd 07 49 9c bd b2 58 ba bd
       -0.024426855 -0.10398819 -0.07631116 -0.090989485
000270 64 32 62 3d c6 7f a0 3c 23 cc 0a bd e7 64 d9 bb
       0.055223837 0.019592177 -0.033886086 -0.006634343
000280 60 e7 79 3d 20 c6 5c bd 89 4d 7a bd 48 05 ad 3d
       0.061011672 -0.053899884 -0.0611091 0.08448273
000290 d2 77 98 3d 07 f9 9a 3d 95 1f ad bd d2 f7 a3 3d
       0.07444729 0.075670294 -0.084532894 0.08006252
0002a0 c4 7f 19 bd bf fc b0 3d 03 49 09 be fe be c8 bd
       -0.037475362 0.086419575 -0.13406758 -0.09802054
0002b0 be cf c9 3d 5e 0e 41 bb 3d 09 46 3d 16 8a e7 3d
       0.09854077 -0.0029458026 0.048348654 0.11305635
0002c0 49 ce a2 3c 2a 19 59 3d d8 dd 3d 3d f1 c6 a8 ba
       0.019873755 0.053002514 0.046354145 -0.0012876672
0002d0 e1 3a ad bd 5a bf 6a 3d 2b 06 ff bd 36 99 94 3d
       -0.08458496 0.057311393 -0.12452348 0.07255785
0002e0 6f 01 ac ba 81 6d e6 3d 16 b8 90 3d a6 a7 22 bd
       -0.0013122986 0.11251355 0.070663616 -0.039710663
0002f0 56 e7 9e bd d2 ba df 3d a4 8c f8 3d 00 f1 18 be
       -0.077589676 0.10924305 0.121362 -0.14935684
000300 66 7a 8c bd b6 e4 87 3d 96 57 4b bc c3 3b 7a 3b
       -0.06859283 0.0663542 -0.012411019 0.0038182593
000310 ce 52 a3 bd a5 04 92 3c 01 9d 39 bc 83 84 b0 bd
       -0.07974778 0.01782448 -0.011328937 -0.086190246
000320 66 df 5c 3d 80 d5 93 3d 0c 11 ec bd cc 1c cf bd
       0.053923987 0.07218456 -0.11526689 -0.101129144
000330 31 3f 2d 3c 57 d8 e2 bd 39 1f ee bd 31 80 ff bc
       0.010574148 -0.1107642 -0.11627049 -0.031189056
000340 94 0d 54 bd 50 12 0c 3e d4 cf b6 3d b5 66 0f 3d
       -0.05177076 0.1367886 0.08926359 0.03501006
000350 b7 8f f4 3d 63 c4 ca bd ac c6 c3 bd 35 01 7a bd
       0.11941474 -0.09900739 -0.09559378 -0.061036307
000360 0f 13 ad 3d e4 24 08 3d e3 aa d2 3d 92 4b 93 3d
       0.08450901 0.033238307 0.102865 0.07192148
000370 69 85 62 3d 7b d6 56 bd cc 6b 00 be 1e 15 ff bc
       0.05530301 -0.05245064 -0.12541121 -0.031138
000380 52 ce 6e bc 57 84 69 b9 c5 d5 96 bd 87 ef 15 be
       -0.014575558 -0.00022269912 -0.07364992 -0.14642154
000390 32 50 63 bd 14 12 b1 bd 57 17 7d bc 6d f5 e8 3c
       -0.055496402 -0.08646026 -0.015447459 0.02843734
0003a0 ae 26 93 bd f5 22 d2 bd 33 bd 48 3d 74 ae a3 bd
       -0.07185112 -0.10260574 0.04900856 -0.07992259
0003b0 6d 63 b1 bd 94 14 f6 ba 78 25 37 bc 87 8a de bc
       -0.08661542 -0.0018774443 -0.011178367 -0.027165664
0003c0 16 d8 bb 3c 3d 4d 6b 3d 7a ea 9d bd fa 01 76 bd
       0.022930186 0.057446707 -0.077107385 -0.06006048
0003d0 26 a8 2d bd a9 5e 6a 3c 0b 03 c7 bd 19 78 35 3d
       -0.042396687 0.014304795 -0.09717377 0.044303987
0003e0 25 48 0c 3e 2c a2 5c bd 89 b9 8a 3c b8 ea ed 3d
       0.13699396 -0.053865597 0.016934173 0.11617035
0003f0 ea 0d d6 bd a0 08 a1 3d bf 8e 61 bd f5 4a 7b bd
       -0.10451873 0.07862973 -0.055067774 -0.06135078

lstm.bias_ih_l0 f4 [256]
000000 a2 77 f1 bb db 15 8b 3d 4e 74 a0 bc d6 f9 84 3c
       -0.0073689977 0.06791278 -0.019586708 0.016232412
000010 03 0f 0a be 30 84 75 3b 29 bd 02 3e b9 58 24 bd
       -0.13482289 0.0037462823 0.12767471 -0.040123675
000020 ec e2 b3 bd 79 4b 6c bd 7c ae 21 3d 95 cd 2e bc
       -0.08783516 -0.057689164 0.039473042 -0.010669132
000030 a8 df 85 bd 50 4a 88 3c c2 df 9e bd d2 85 9c bd
       -0.065368 0.016636997 -0.07757522 -0.07642712
000040 d1 a3 b7 bc 1c ad de 3a a8 fc 51 3d 70 06 0a bc
       -0.022416981 0.0016988846 0.051266342 -0.008424386
000050 b6 2b d8 bd 47 53 c3 3d 5a 08 83 bd d2 47 d0 3d
       -0.10555212 0.09537368 -0.06398077 0.10169949
000060 cf a5 a3 3d 63 1f 0d bd aa 94 8a bd 70 5e ed bd
       0.0799061 -0.03445376 -0.06766637 -0.11590278
000070 08 a1 49 ba c1 84 f2 3d c8 3f 8c 3d 71 75 9f 3d
       -0.0007691537 0.11841727 0.06848103 0.07786072
000080 43 a9 9e 3d 59 8a a8 bd ab 6c 32 3c a4 6e 85 3d
       0.07747128 -0.08229513 0.010890166 0.06515244
000090 b9 27 ee bd e2 7d 0e bd 2e 9e fb bd bc 10 be 3d
       -0.1162867 -0.03478802 -0.1228603 0.092805356
0000a0 38 42 f6 bc e9 cb a6 3d 1e 5e d8 bd 37 df 22 3d
       -0.030060872 0.081443615 -0.105648264 0.039763656
0000b0 6b 38 74 bd 89 a1 e2 bc 6b ee e3 bc 31 d1 72 3d
       -0.059624117 -0.027664917 -0.027823647 0.05928153
0000c0 18 b7 8a bd f0 97 d6 bd 93 e9 ff bd e4 de 2f bd
       -0.067732036 -0.104781985 -0.124957226 -0.042937174
0000d0 ba a7 8a bd da fd 25 3c 95 cc cb 3d a0 bd a5 bd
       -0.067702726 0.010131324 0.0995113 -0.08092809
0000e0 05 97 74 bd f9 4b 82 bd 99 35 44 bd 3e 74 9d bc
       -0.059714336 -0.06362147 -0.047902677 -0.019220468
0000f0 92 43 ab bd f1 c4 30 bd 6f 15 e5 bd 24 c2 a0 bd
       -0.083624974 -0.043156568 -0.11185729 -0.078495294
000100 cb b8 c9 bd c0 01 f0 bd ac 32 aa bd 95 1f 0d be
       -0.098496996 -0.11719084 -0.08310446 -0.13781579
000110 6c 80 b3 3d 82 ba 4e 3d a9 d6 5b bd c4 d3 fc 3b
       0.08764729 0.050470836 -0.053671513 0.007715674
000120 33 a4 1c bc 9f ff dc 3d 7c 31 ff 3d b2 a5 53 3c
       -0.0095606325 0.10790943 0.1246061 0.012917923
000130 c1 47 c0 bd 9d 8f fe bd b4 ad c8 3d 42 49 70 bc
       -0.09388686 -0.12429736 0.09798756 -0.0146659035
000140 69 5e 0f 3b 67 b4 09 be 59 09 40 3c 3e 94 c2 3d
       0.0021876341 -0.13447724 0.011720979 0.09500931
000150 13 c1 92 bd 89 b2 a0 bd bb ab 9d bd bb 79 7d bd
       -0.07165732 -0.07846553 -0.076987706 -0.06188367
000160 cc c0 4f bd 8e 4d 8f bd 82 3d 5b 3b 3b 4b bf 3d
       -0.050720975 -0.06997214 0.003345341 0.09340521
000170 8a 90 aa bd 85 81 60 bd 01 69 2a 3d 57 27 a6 3d
       -0.0832835 -0.05481102 0.041604046 0.08112972
000180 77 d9 cd bd 16 ed d3 3d 43 39 bf bd e0 2f c2 bd
       -0.10051244 0.10347955 -0.09337094 -0.09481788
000190 6b 53 4f bc da 53 a9 ba f3 99 2a 3d 82 f5 5f bd
       -0.012654166 -0.0012918666 0.041650724 -0.054677494
0001a0 15 3f 60 bd 7d 4a 12 3e 96 87 a7 bd 92 ba c4 bc
       -0.05474766 0.14286228 -0.08180158 -0.024014745
0001b0 bc 68 a7 bd 2b 85 f0 bc aa 5e 09 3d 5d 6b 91 bd
       -0.08174273 -0.029360374 0.033537544 -0.07100556
0001c0 d0 e6 44 bd a9 36 5b bc fa 55 56 3d 0b c3 24 bd
       -0.048071682 -0.013379731 0.052328087 -0.04022507
0001d0 6c f8 32 bd dd 3c 56 bd 07 1e 85 bc c2 4b 55 bc
       -0.043693945 -0.052304137 -0.01624967 -0.01301855
0001e0 8c b2 26 3d 9e 5a c6 3d 2c 3b 46 bd e6 1e e3 bd
       0.04069762 0.096852526 -0.048396274 -0.11089878
0001f0 46 74 cd bd 38 64 6c 3d d2 27 fc bb f1 6d 58 3d
       -0.10031943 0.057712764 -0.0076951766 0.052839223
000200 f3 79 5b bd 6c 59 d1 bd 4c d4 c7 bd b4 70 7c 3d
       -0.053583097 -0.10222134 -0.09757289 0.06163092
000210 f7 48 c0 bb b3 19 06 be 0d b5 4d bb 6e 36 b0 3d
       -0.005868073 -0.13095741 -0.0031388432 0.08604132
000220 6d 9d 38 3d 4d cb 65 bd e2 1d e7 3d 0a 6e 12 3d
       0.045072008 -0.056102086 0.112849966 0.035749473
000230 eb 38 7e 3d f7 ea 3a bd dc 63 5d bd a7 63 76 3d
       0.062066 -0.045634236 -0.05405031 0.06015363
000240 b0 23 db 3d 5f 3b a8 bb 50 da f1 3d 5f 1a 57 3d
       0.10700166 -0.0051340307 0.11809218 0.052515384
000250 24 3e 6b 3b 3f 9f fd 3c 2e 06 18 bd c4 c3 3a 3d
       0.0035895193 0.030959724 -0.03711527 0.045596853
000260 f2 c5 bd 3d 38 3d 1b bd 85 a5 f4 3c 0b 80 3a 3c
       0.09266271 -0.03790018 0.029864082 0.011383067
000270 92 df 82 3d 8e e6 99 3d 58 17 97 bc da cc a3 bd
       0.06390299 0.07514678 -0.018443748 -0.07998057
000280 2a 51 88 bd a5 de 5d 3d 80 11 dd bd 84 d8 cb 3c
       -0.06656106 0.05416741 -0.107943535 0.024883516
000290 4e 74 09 3c 46 6c d7 bd 84 4c be 3d 79 14 c5 bc
       0.008389546 -0.105186984 0.09291938 -0.024057614
0002a0 13 1a bf 3c 3a 91 0b bc d9 59 0f be c1 52 92 3c
       0.023327863 -0.008518511 -0.13999118 0.017861726
0002b0 05 53 ee 3d 11 6f d7 3d 79 9c 90 bb 0d 7f d4 bd
       0.116369285 0.10519231 -0.0044131842 -0.103757955
0002c0 27 50 b2 bd d0 af ae 3d 35 4a 83 bd 69 c8 36 3d
       -0.08706694 0.08529627 -0.06410638 0.04462472
0002d0 c1 f7 0d bd 7b d5 1f bb 3f 29 c6 3d 6c 4d dc bd
       -0.034660105 -0.002438872 0.09675836 -0.107569546
0002e0 98 3f 4e bd 87 90 ff 3d 52 66 aa bc 69 a9 0c 3c
       -0.050353616 0.12478738 -0.020800743 0.008585312
0002f0 ac 6e 1f bd 75 bf cd bc da 26 e4 bd fb b6 e4 bc
       -0.038923904 -0.025115708 -0.11140223 -0.027919283
000300 40 e2 60 3c 95 f2 10 be 25 7b b0 bc f1 ba 41 3b
       0.013725817 -0.14155038 -0.021543095 0.0029560889
000310 3f 48 2d bd 15 c1 62 bd 6b 9a 29 bd ac d0 97 3d
       -0.042305227 -0.05535992 -0.04140703 0.07412848
000320 72 59 30 bd da d9 01 bd e4 5a b6 3c f9 1e a4 bd
       -0.04305405 -0.0317019 0.022260137 -0.0801372
000330 6a 70 bb 3d 1e 4f b5 bd a4 53 a6 3a 08 8c c4 bc
       0.09152301 -0.08852981 0.0012689722 -0.023992553
000340 6d ba 4b 3d 94 99 97 3b af a5 b0 bc de 6b c9 bd
       0.049738336 0.0046264622 -0.02156338 -0.09835027
000350 09 90 c9 bd 08 84 bc 3d 46 9e df bc a8 c2 47 bd
       -0.09841926 0.092048705 -0.02729715 -0.048769623
000360 2a b8 84 bd 2e 8d a7 3d 3c 94 0c 3d 82 84 e9 bd
       -0.06480439 0.08181225 0.034321055 -0.11402227
000370 4e 40 d8 bd 4d c0 02 3c 22 ba d1 3c df 02 e0 bd
       -0.1055914 0.007980418 0.02560145 -0.109380476
000380 97 9e 15 3d 76 f8 8e 3d 66 a3 93 3d 66 4d aa bd
       0.036528196 0.06980984 0.072089 -0.08315544
000390 cf 5c a9 bd 47 55 06 3e a0 b0 e3 bd 11 cf b1 bd
       -0.08269655 0.13118468 -0.11117673 -0.08682073
0003a0 c0 e2 12 3e 7f 73 e6 3c 2d cd 75 3d 6f 7b 1f 3d
       0.14344311 0.028131245 0.060010124 0.038936075
0003b0 42 fb 24 3d 57 a0 98 3d 7b 8a 5b 3d e6 21 e5 bc
       0.04027868 0.074524574 0.053598862 -0.027970266
0003c0 42 1b b2 bd 28 13 48 bc a6 f1 5f 3d b1 21 44 bd
       -0.08696605 -0.012211598 0.054673813 -0.047883693
0003d0 44 a1 8b 3d 14 39 f4 3d 20 2c d2 3d 6b 6a 1f bd
       0.06817868 0.11924949 0.102623224 -0.038919847
0003e0 9e 39 02 be a9 17 04 3e 7f 93 b8 3b 6d 86 fd 3d
       -0.12717292 0.1289965 0.0056328173 0.12379155
0003f0 55 ba c5 bc 09 aa f1 3d 27 23 82 bc c3 39 f3 bd
       -0.024136702 0.1180001 -0.015885903 -0.118762515

lstm.bias_hh_l0 f4 [256]
000000 20 1f 84 bd 21 7a da bd aa 71 54 3c d1 ec e8 bc
       -0.06451249 -0.106678255 0.012966553 -0.028433235
000010 d4 2a b8 bd aa b3 46 bd 43 b4 f6 3c af 5f 97 bd
       -0.08992544 -0.048511185 0.030115252 -0.07391297
000020 05 30 d7 bd 0f 8a 4f 3c 79 f9 94 bd fc f8 08 3e
       -0.10507206 0.012667193 -0.07274146 0.1337623
000030 62 85 b3 3d dc ac 0d bc c1 0f 31 3d 28 d1 fd bd
       0.08765675 -0.00864717 0.043227915 -0.12393409
000040 c6 49 9c bd eb 80 b0 3d 4f b2 7e 3d d4 14 bc bd
       -0.07631259 0.08618339 0.062181767 -0.0918366
000050 af 1b 23 bc b7 ec a4 bd c4 0a a0 3d 77 67 de bd
       -0.009955331 -0.08052962 0.078145534 -0.10859578
000060 d0 12 12 3c 51 67 b9 bd 8c c2 97 3d 51 33 c5 bd
       0.008915618 -0.09052909 0.07410154 -0.096289285
000070 3e ea d2 bd 29 d6 65 bd 50 45 0d 3e 75 59 30 bd
       -0.102985844 -0.056112442 0.13795972 -0.043054063
000080 82 fb e9 3d 85 24 f7 3d 31 f1 08 bd 5e 62 bf 3d
       0.114249244 0.120675124 -0.033433143 0.09344934
000090 2e e2 66 3d ca 7a 92 3d c7 eb d8 3d f3 04 ac bd
       0.056368046 0.071523264 0.10591846 -0.083993815
0000a0 3d 4b 19 3e 3f f8 d6 3b 35 e2 85 bd 67 e7 87 3d
       0.14970107 0.006560355 -0.06537286 0.06635933
0000b0 9e ba c1 3a 95 36 0b bc 1d 5c ef bd e8 99 21 3d
       0.0014780348 -0.0084969 -0.11687491 0.039453417
0000c0 c2 fc b9 3c ad 95 8f ba c3 29 83 bd c5 ca 54 bd
       0.022703532 -0.0010954641 -0.0640445 -0.05195119
0000d0 c7 e2 39 3c e3 70 f4 bc 15 91 0d 3d 9a 47 14 bc
       0.011345572 -0.029838985 0.03456219 -0.009050274
0000e0 f0 89 25 3c f6 02 f7 bc 96 a1 18 3d 14 6d a6 bd
       0.010103688 -0.03015278 0.037263475 -0.08126274
0000f0 3f a3 51 bd 5d aa 90 3d 58 22 45 3d a2 8f 88 bd
       -0.051181074 0.07063744 0.048128456 -0.06668021
000100 1e 8c 7a 3d 9e 7d d6 bd db 09 a3 bd 63 7f 65 bb
       0.061168782 -0.10473178 -0.07960864 -0.0035018555
000110 97 e9 40 bd f7 1b d7 bd 4a 7d 84 3d a6 35 5d bc
       -0.04709777 -0.10503381 0.064692095 -0.01350156
000120 4a 28 12 bd f8 b9 02 3e e8 15 1f 3e 7d aa 8a bd
       -0.035682954 0.12766254 0.155357 -0.06770799
000130 2b 50 a0 bc 11 8f df bd 9d 53 60 3c fd 97 bf bd
       -0.019569477 -0.109159596 0.01369181 -0.09355161
000140 f9 de db bd 23 35 4d bc 6f f4 17 bd 65 1d 89 bc
       -0.10735888 -0.012524876 -0.037098344 -0.01673765
000150 70 bf 88 bd f9 9f a5 bc 49 c0 ac bd d5 6d 81 bd
       -0.06677139 -0.020217882 -0.08435113 -0.06319777
000160 8a 4c 7a bd 6b 96 9d bc 2e 5f dc 3b 7a 37 3d 3c
       -0.06110815 -0.019236764 0.0067252135 0.011548871
000170 6b 4b 8f bd f1 99 8d bd b4 86 aa bd 73 58 88 3d
       -0.06996807 -0.069141276 -0.08326474 0.06657495
000180 27 0f cd bd c6 90 b5 3d 62 5a a1 3d 81 77 89 3c
       -0.10012656 0.08865504 0.07878567 0.016780617
000190 2e 5d b3 3d 36 91 da 3d ca 5d 74 ba 47 a8 e2 bd
       0.08758007 0.10672228 -0.0009321837 -0.110672526
0001a0 3a 6b ba bd 8e 62 0f bb 5e b6 98 bd cc 2d 97 bc
       -0.09102483 -0.0021878812 -0.07456659 -0.018454455
0001b0 dd 6e 02 3b c5 51 92 bd a1 87 bd ba 5e ff bc bb
       0.0019902505 -0.071445026 -0.0014459976 -0.005767747
0001c0 5a 7b 72 bd 51 c4 dd bd a1 b3 98 bd ff a7 29 3c
       -0.05919967 -0.1082846 -0.074561365 0.010354995
0001d0 42 4b c3 3b a2 e0 b1 bd 22 d4 89 3d 6b 74 51 3d
       0.005959899 -0.086854234 0.06729914 0.051136415
0001e0 5d 84 67 bd ae 75 92 bd 5c 69 10 3c ba 60 be bd
       -0.056522716 -0.07151352 0.008814182 -0.09295793
0001f0 a5 f7 39 3c 19 b6 a7 bd a8 64 e3 bd b6 3d 92 bd
       0.011350547 -0.08189029 -0.11103183 -0.07140677
000200 0b 82 36 bd 49 d7 d2 3c e9 e1 b3 bd 97 ca 5f bd
       -0.044557612 0.025737422 -0.08783323 -0.054636564
000210 1e 0c 90 bd 78 86 0c be c5 62 a1 bd 5a a4 ea bd
       -0.07033561 -0.13723171 -0.07880167 -0.11457129
000220 75 68 dd 3d 8c 35 c3 3d f4 aa 92 3d e0 69 ae 3d
       0.10810939 0.09531698 0.07161513 0.08516288
000230 68 25 69 bc fc eb 01 3e 7d 0a 9a bd 55 51 82 3c
       -0.01423011 0.12687677 -0.07521532 0.015907923
000240 f6 0f cf bd dd 30 c5 bc b7 05 91 3d 30 6a 65 bd
       -0.10110466 -0.024071151 0.07081168 -0.05600947
000250 02 af c4 bd ed 4c 00 3e 22 99 dc 3d 64 b6 4c 3d
       -0.096036926 0.12529345 0.10771395 0.04997863
000260 4a 96 04 be 76 fe 96 bd 80 44 5c bd 8c 77 88 bd
       -0.12947956 -0.07372753 -0.053776264 -0.06663427
000270 ef 28 79 bd ee b7 a2 bd 2b 66 2b bd 99 f2 97 bd
       -0.060830053 -0.07945238 -0.04184548 -0.07419319
000280 0a 20 8a 3d a4 4e 25 bd f1 ce c7 3d b5 38 80 3c
       0.06744392 -0.0403582 0.09756268 0.01565204
000290 a8 90 83 3d 4b 07 b8 bc b7 b2 d2 bc 67 60 c5 3d
       0.06424075 -0.022464415 -0.025719984 0.09637528
0002a0 3c 29 9e 3d 5a 9a 3c bd 78 97 6d 3b 7c f9 c1 bc
       0.077227086 -0.04604564 0.0036253612 -0.023678534
0002b0 f6 af b4 3d 3d 50 92 3d 95 c4 41 3c c9 9b bd bd
       0.088226244 0.071442105 0.011826654 -0.09258229
0002c0 97 3a da bd ff 25 74 3c e8 92 c3 3d e3 68 fe bd
       -0.106557064 0.014901637 0.095495045 -0.12422349
0002d0 44 53 8f bd 64 92 41 3d 3a 4b ef bd 08 8b 05 bd
       -0.069983035 0.04725875 -0.1168427 -0.032603294
0002e0 43 b4 65 3d 28 50 22 3d b2 47 01 be 82 a0 1e 3e
       0.056080114 0.039627224 -0.12625006 0.15490916
0002f0 f7 f2 42 bc f9 60 e7 3d 27 42 ca bd 1d 33 f3 3d
       -0.011898748 0.11297793 -0.09875899 0.118749835
000300 4d 6f b3 bd 7e 49 95 bd 26 da f3 3a 65 d2 39 bd
       -0.08761463 -0.07289408 0.0018604442 -0.045366663
000310 84 02 d6 bd dc fd 35 bd f1 1f a2 bc b1 7c 5c bd
       -0.104496986 -0.044431552 -0.019790621 -0.053829852
000320 5a 73 b6 3d 76 a9 00 3e cc 6e 7f 3d 47 14 d9 3b
       0.0890872 0.12564644 0.062361524 0.0066247317
000330 02 a9 fd bd 0e c6 0b 3b dd 5c 6a bd 52 6e cc 3d
       -0.12385751 0.0021327767 -0.057217468 0.099819794
000340 1f a0 7d 3d 03 45 20 3d a6 45 af 3d 27 4f 97 3d
       0.06192028 0.039128315 0.08558206 0.07388144
000350 4f 2d 16 bd f0 61 14 3d 35 12 89 3d ff ca b3 bd
       -0.036664303 0.036226213 0.06692926 -0.08778953
000360 3e bc 6f bd a9 30 ec 3d 49 0c cb 3c d8 c6 b6 bd
       -0.05852913 0.11532719 0.024786131 -0.08924645
000370 10 5c 77 3d 75 60 d0 3a 6b 2c 12 bd 97 dd 12 be
       0.060390532 0.0015897887 -0.03568689 -0.14342342
000380 32 8d 0b bd db 63 4a bd f4 66 cd 3d 67 fc bd bd
       -0.0340702 -0.049411636 0.100294024 -0.092766576
000390 9c 70 57 bd 89 97 2d 3e 64 b6 cc 3d 2c 97 06 3e
       -0.052597627 0.16952337 0.09995726 0.13143605
0003a0 c4 37 83 3d 7c 95 9e bd c2 e0 b6 3d d1 e0 36 3d
       0.06407121 -0.07743356 0.08929588 0.044647995
0003b0 c1 42 e9 bc 17 84 9d bd be 78 7e bd 36 36 d2 bd
       -0.028474214 -0.0769121 -0.062126867 -0.10264246
0003c0 78 f0 b6 bd 1f c8 77 3d c9 7b 48 3b 6f 23 14 3d
       -0.089325845 0.060493585 0.003059136 0.036166605
0003d0 c7 1b 0a 3d 41 cd da 3d 87 ad 98 bd 38 b8 bb 3d
       0.033717897 0.1068368 -0.07454973 0.09165996
0003e0 43 0c c6 bd 6a a3 1e 3d 68 83 c5 bd d3 89 f6 bc
       -0.096703075 0.038730063 -0.096442044 -0.030095017
0003f0 3e 3f a0 3d fd d9 f1 3d 20 ee 2f 3b 57 7c 27 3b
       0.078245625 0.11809156 0.0026844814 0.002555629

lstm.weight_ih_l0_reverse f4 [256, 34]
000000 4f 3c b6 bd 40 59 87 3d 02 a8 fc 3c 8e e7 45 3d
       -0.08898222 0.0660882 0.030841831 0.04831653
000010 59 85 d8 bc 53 73 d5 bd b7 4b 51 3d d2 25 b6 3d
       -0.026430773 -0.10422387 0.051097598 0.088939324
000020 37 38 b4 3d a1 e8 f5 ba c9 cb 17 3d 00 97 a2 bc
       0.08799785 -0.0018761345 0.03705958 -0.019847393
000030 52 44 13 be 32 15 70 3c 62 d2 03 be e7 b7 df 3b
       -0.14381531 0.014653491 -0.12873223 0.006827343
000040 75 43 b0 bd a7 85 ef 3c f3 ee e0 bd 30 04 02 bd
       -0.086066164 0.029238535 -0.10983076 -0.031742275
000050 99 5c 01 3d 9a a8 8c ba a5 2b 29 bd f5 5f a1 3d
       0.03158245 -0.00107314 -0.04130139 0.078796305
000060 20 c4 a8 3d 1f 93 2c bd 55 2a d2 bd f1 5c 24 bd
       0.08240533 -0.042132493 -0.102619804 -0.0401277
000070 21 0b 01 bd ad 30 e6 3d a1 3d 23 3d 14 7c 7e 3c
       -0.031504754 0.11239753 0.039853696 0.015532512
000080 1f bc 09 bd 3c 06 d9 bd 44 c6 0e bc 3f b1 1b 3d
       -0.033626672 -0.10596892 -0.008714262 0.038010832
000090 ec 1c 00 bd 88 8d af 3d f7 45 a3 bd 8a aa ae bd
       -0.031277582 0.08571917 -0.07972329 -0.085286215
0000a0 74 1b e9 bd c4 99 c0 3c 0e 52 0c be e4 92 2e 3c
       -0.113821894 0.023510821 -0.13703176 0.010655139
0000b0 63 88 a7 bd 0b 6f 1b be 11 05 1e bd 8b 30 0d be
       -0.081803106 -0.15179078 -0.03857905 -0.13788049
0000c0 89 c1 e9 3d 8f 5d a7 bd 7d 6b f3 3a 91 83 13 bd
       0.11413867 -0.08172142 0.0018571463 -0.036014143
0000d0 75 d4 d4 bd 72 a3 b8 bd 02 2b f9 bc a7 83 04 3d
       -0.103920855 -0.0901555 -0.030416016 0.032352116
0000e0 89 4b b7 bd 44 fb 22 3c 27 66 bb 3d a3 07 32 be
       -0.08949954 0.009947602 0.091503434 -0.17385726
0000f0 c3 c0 e6 3d 0c f6 fe bd 9c 23 3f bd 1a a7 21 be
       0.11267235 -0.124492735 -0.04666482 -0.157864
000100 83 40 8c 3c 37 86 78 3d d9 b6 ca 3d ac dc b2 3b
       0.017120605 0.060674872 0.09898157 0.005458435
000110 ca 1b b4 bc 4a 9d f3 bd c8 eb ab bd 30 6b 31 3d
       -0.021985907 -0.11895235 -0.08394581 0.043315113
000120 2b 9e 33 bd e2 70 e8 bd 27 94 54 3b 1d c7 ee 3c
       -0.043852013 -0.11349656 0.0032436938 0.029147679
000130 2c db 8d 3d 4f ca a5 3d b9 03 4c bc dc f2 03 bd
       0.06926569 0.08095228 -0.012452059 -0.03221403
000140 15 64 be 3d 8d 86 7f bd 7f 19 af 3d 3c a3 e4 3d
       0.09296433 -0.062384177 0.08549785 0.11163947
000150 9a e6 0e bd 5d 43 8b 3d 1d 55 dd 3d b5 d1 8a 3d
       -0.034887888 0.06799958 0.1080725 0.0677828
000160 1c 19 6c 3d 73 44 b4 bd af 3b 04 be d7 2e 12 bc
       0.057641134 -0.08802118 -0.12913392 -0.0089223
000170 7a a9 66 bc 95 1c 1b 3d 77 f1 c7 bd a6 9e fe 3d
       -0.014078492 0.037869055 -0.09762853 0.124326035
000180 af fe 36 bd da da 9d 3d ff eb b1 bd 83 11 74 3d
       -0.04467648 0.07707758 -0.08687591 0.059587013
000190 18 29 d8 bd 8e 48 7d bd fb ea 3f 3d 76 bf ac 3d
       -0.10554713 -0.06183677 0.046854954 0.08434956
0001a0 51 8c 9f bd 3d a4 6a 3d db 0e d8 bc 40 38 18 bd
       -0.07790435 0.057285536 -0.026374271 -0.03716302
0001b0 be 78 9f 3d 23 1e a9 3d 52 b7 c0 3d a5 0b 3a 3c
       0.077867016 0.08257701 0.094099656 0.011355315
0001c0 87 b6 f9 3d 83 eb ad 3d ec 49 00 3e d8 57 bd 3d
       0.121930175 0.08492186 0.12528199 0.092452705
0001d0 14 18 6a bd 1a e3 11 3e d3 dd 49 bd b6 28 2c bb
       -0.05715187 0.14246789 -0.049283814 -0.0026269383
0001e0 b6 7d 8c 3d 72 e3 16 3e 07 25 ec 3d c8 3d fe 3d
       0.06859915 0.14735201 0.115305 0.124141276
0001f0 d2 90 cf 3c 80 f4 22 3c 02 3e a8 3d ca db 8b 3d
       0.02533761 0.009945989 0.08214952 0.06829031
000200 23 97 4d 3d 42 d8 f0 3d 34 20 78 3d ef da 7d bc
       0.050192963 0.11759998 0.060577586 -0.015494092
000210 e8 bd e3 bc 20 61 63 bd 27 32 06 3e ec eb a7 3c
       -0.027800515 -0.055512547 0.13105069 0.020498239
000220 44 f6 5d bd d5 dd 22 3d d9 b0 bf bd 54 81 23 bd
       -0.054189935 0.039762337 -0.09359903 -0.03991826
000230 d0 e4 e5 3d fa de fc bc b6 89 09 be bd 7b 88 bd
       0.11225283 -0.030868042 -0.13431439 -0.06664226
000240 61 8c c8 3d 5f 2e c8 bd 13 eb 95 bd e3 a4 9c bd
       0.097924 -0.097744696 -0.073202275 -0.07648637
000250 20 fd 2b 3c 0e 9a 9e 3d dd 4e 20 be 9c 14 a6 3d
       0.010497361 0.07744227 -0.15655084 0.081094
000260 24 ee d6 bd 5d 4a e9 3c 33 2c b7 bc c6 34 1a bb
       -0.104946405 0.028477842 -0.022359943 -0.002352999
000270 e6 a0 01 be 7c 4a 64 bc 4b c9 fe bd 6e 28 4a bd
       -0.12659034 -0.013933774 -0.12440737 -0.049354963
000280 1c a6 98 bd bd 3e 4e bd 76 0d be bd 8c 26 6a bd
       -0.07453558 -0.0503528 -0.09279911 -0.057165667
000290 20 77 4c bd a6 6a 5f 3d 49 70 97 bd f4 10 c6 3d
       -0.049918294 0.054545067 -0.073944636 0.09671202
0002a0 ec e7 b0 3c 6c 1c c5 3d 31 bf 53 3c a6 f9 32 bd
       0.021594964 0.09624562 0.012924002 -0.043695115
0002b0 f8 9d 4d 3d 64 80 25 3d 96 43 c7 bd 0e 80 62 3d
       0.05019948 0.040405646 -0.09729688 0.055297904
0002c0 98 cb 90 3c 08 61 19 be 30 70 b4 bc 8f 58 c0 bd
       0.017675206 -0.1497842 -0.022026151 -0.09391891
0002d0 92 b5 62 3d 61 4c 20 3c 18 66 5b 3c 30 48 d5 3c
       0.05534894 0.009783835 0.01339104 0.026035398
0002e0 7c 0c dd bd d4 49 23 3c 02 2f 0c be 8f dd 16 bd
       -0.10793397 0.009966332 -0.13689807 -0.03683239
0002f0 48 e5 01 bd b3 91 1d be ad 97 7f 3d 05 70 9d bd
       -0.0317128 -0.15387611 0.06240051 -0.07687382
000300 27 4f 9f 3d 1d 0e e4 bc 6b 92 90 3b 07 1b 07 3d
       0.07778769 -0.027838761 0.0044119856 0.03298476
000310 1d e6 3b bd 3b 89 c1 bd 80 fb f5 bd cd 58 12 be
       -0.04587375 -0.09450003 -0.120108604 -0.14291687
000320 a5 9b 9c 3d 80 38 ae 3c e6 5c f9 bc b6 36 5c 3d
       0.07646874 0.021267176 -0.030439805 0.053763114
000330 d6 8b be bc 94 0f f9 bd b2 5f cf 3d 8b 84 bd bd
       -0.023260038 -0.121611744 0.10125674 -0.09253796
000340 7d 59 39 3d 71 df 8b 3d 17 06 48 3d a8 9f 52 3d
       0.04525136 0.068297274 0.048833933 0.05142179
000350 06 30 c7 bd 2e a5 6a 3d b9 48 a8 3d 5e 2b 1d be
       -0.097259566 0.057286434 0.08216996 -0.15348575
000360 1b 61 87 3d 76 d0 b7 bd 4c f9 d7 bd c3 40 24 be
       0.06610318 -0.08975308 -0.105455965 -0.1604033
000370 f7 eb 1b 3d 17 c6 c3 bc 0e 4a a8 3d 7c dd a7 3d
       0.03806683 -0.023898168 0.0821725 0.08196542
000380 8f e0 88 3b 55 26 6a bd 6f af 8c bd 64 14 88 bd
       0.00417716 -0.057165463 -0.06869399 -0.06644514
000390 9f eb f5 bd 06 2c 7d 3d 15 53 2d 3d 68 bd 17 bc
       -0.12007832 0.061809562 0.04231556 -0.009261467
0003a0 79 12 e1 3b 01 e9 c5 bd 87 86 5f bd 0e 9a a7 bd
       0.006868657 -0.096635826 -0.054571655 -0.081836805
0003b0 0b 85 ad bc a0 b1 32 3d e7 47 06 be 42 8d 60 bd
       -0.021181604 0.043626428 -0.13113366 -0.054822214
0003c0 98 bb aa bd 71 bb ca bc 0d 59 36 bd 6f 75 bb 3d
       -0.08336562 -0.024747582 -0.04451852 0.09153258
0003d0 0f 3c f3 bd 75 4e 72 3b 86 4c ae 3b 3e 36 c6 bd
       -0.1187669 0.0036973034 0.005319181 -0.096783146
0003e0 f6 97 f7 bd 9d 17 0d be 87 32 f9 bc 51 f7 bd 3d
       -0.12089531 -0.13778539 -0.030419601 0.092756875
0003f0 b1 8c de 3d c5 e8 74 bd 58 df f0 bd 2e 9e ef bd
       0.108666785 -0.0597923 -0.117613494 -0.11700092

lstm.weight_hh_l0_reverse f4 [256, 64]
000000 cb fe 8a 3d f0 fe c1 3d 81 01 c3 bd d4 31 8b 3c
       0.06786879 0.094724536 -0.09521771 0.016991533
000010 74 20 ef 3d cc 54 40 bc 22 b7 74 3d 33 73 da bd
       0.11676112 -0.011738967 0.05974496 -0.10666504
000020 46 59 db 3d aa 49 e5 3d 84 0f 99 3d 29 cf 05 be
       0.10710387 0.11195691 0.074736625 -0.13067307
000030 d8 65 a5 3c 21 9e 06 3e 4f f5 a2 3d 83 81 dc bd
       0.020190164 0.13146259 0.07956945 -0.1076689
000040 0e 51 98 3a 63 17 c3 bd b7 03 be 3d cb 62 cb 3c
       0.0011620836 -0.09525945 0.09278052 0.024827382
000050 34 39 d8 3d 51 3f fc 3d 7c 6f cb bd 44 6e a2 3d
       0.10557786 0.12316764 -0.09933373 0.07931188
000060 9c 9f 93 bd a6 01 88 b9 fd 99 89 bd 18 19 c0 3d
       -0.072081774 -0.0002594117 -0.06718824 0.09379786
000070 19 a5 c3 bd 8b 90 79 3d ea 61 e8 bd 76 60 62 bd
       -0.09552974 0.060928863 -0.113468006 -0.055267774
000080 4d ef e4 3d 0b d7 d5 bd e1 72 40 bd 8c c5 9c 3d
       0.111784555 -0.10441407 -0.046984557 0.076548666
000090 3e 72 87 bd 03 b2 ca bd 4b 15 03 bd da 03 83 3c
       -0.06613587 -0.09897234 -0.03200273 0.015993048
0000a0 c6 88 b3 3d 20 58 8c bd e5 c1 e1 bd f1 2c 52 3d
       0.08766322 -0.06852746 -0.110233106 0.05131239
0000b0 2d 63 0f 3d 58 11 25 3d fb ea 4e 3b f5 fe de bd
       0.03500669 0.040299743 0.0031573165 -0.10888473
0000c0 c5 3a 4c bd a2 44 ba bd 3a f3 61 bc b2 51 1a 3d
       -0.049860734 -0.09095122 -0.0137909 0.037675567
0000d0 30 3d e5 bd 0d 70 2e 3d 00 3c 99 bd 43 32 24 bc
       -0.11193311 0.04258733 -0.07482147 -0.010021749
0000e0 1e ac 26 3d ab 81 a0 bd 74 af 11 3c 5e ea e9 bb
       0.040691487 -0.07837232 0.008891929 -0.0071385344
0000f0 c2 08 b1 3d be eb 47 bd ff e3 eb bd ed d9 8d 3d
       0.086442485 -0.048808806 -0.11518096 0.06926332
000100 f6 35 87 3d 4c 69 68 bc 8f 38 34 bd 12 ab 7c bd
       0.06602089 -0.014185261 -0.04399925 -0.061686583
000110 32 04 93 bc d2 c3 3b bd 93 f6 c6 bd c2 a6 a9 bd
       -0.017946336 -0.045841046 -0.09714999 -0.0828376
000120 2f 8c c7 bd 26 87 f0 3d 59 d0 59 3d 75 57 49 3d
       -0.09743535 0.117445275 0.05317721 0.04915567
000130 0b 43 7f bd 5c fa e5 bc f7 fe 10 3d df 66 f5 bd
       -0.062319797 -0.028073482 0.035399403 -0.11982512
000140 09 f6 ec bc 24 a7 c2 bd 2f 74 cd 3c 49 62 4c 3d
       -0.028925912 -0.09504536 0.025079815 0.04989842
000150 10 5d 51 bd fc fd 71 3c f2 f6 e3 bc 31 63 32 bd
       -0.051114142 0.014770027 -0.027827714 -0.043551628
000160 dd e2 c0 bc 84 69 f8 3d b2 1d 2b 3c b8 74 6e 3b
       -0.023545677 0.121295005 0.010444092 0.0036385488
000170 45 7c 4f 3d 1c d2 94 bd 8d f7 15 be f4 fb e4 bd
       0.050655622 -0.07266638 -0.14645214 -0.11180869
000180 9a 85 fa bd 3c 6c 13 3e 79 65 d2 bc f2 e7 a4 bd
       -0.12232514 0.14396757 -0.025683152 -0.080520526
000190 f6 d7 31 bb 71 d1 c5 bc bc 7a e9 3c a1 7d 78 3c
       -0.002713678 -0.024147721 0.028500907 0.015166671
0001a0 e0 9e 6a 3d 54 98 30 be 93 b4 d4 bd e4 f2 99 bd
       0.05728042 -0.17245609 -0.10386004 -0.07517031
0001b0 56 79 b9 3d 7a 70 61 bd 76 a7 f3 bc ab 3c 78 3b
       0.09056346 -0.055038907 -0.029742938 0.0037877958
0001c0 12 77 d8 bd 23 15 6a 3d 3a 12 ae bc 30 9b 45 3d
       -0.10569586 0.057149064 -0.021248925 0.0482437
0001d0 df 4c 36 bd 7e 57 35 bd 2e ac 27 3d a7 97 ef bc
       -0.044506904 -0.044272892 0.040935688 -0.029247118
0001e0 8c 5f 4b 3c c0 c1 11 3e 9a 02 a7 bd 4d 64 8e 3c
       0.012412917 0.14234066 -0.08154793 0.017381812
0001f0 56 a9 6c 3d 92 27 16 bd 20 89 cf bd 32 2b 29 bb
       0.05777868 -0.03665883 -0.101335764 -0.00258131
000200 59 f2 9a 3d a8 31 61 3d da 49 4c bd 5e 94 a0 3c
       0.075657554 0.054978997 -0.049875118 0.019601997
000210 1f 97 f6 bd 58 66 05 bc f8 93 c5 3d 4b 47 50 3d
       -0.12040543 -0.008142076 0.096473634 0.05084924
000220 69 52 45 bd 52 8a 0f bd 32 4b 6c bb de e3 eb 3d
       -0.048174296 -0.035044022 -0.0036055562 0.115180716
000230 03 19 df bc 19 f9 35 bc 8d 4c 68 3c 00 e0 8a bb
       -0.027233606 -0.011106753 0.014178407 -0.0042381287
000240 31 28 ec 3b 1e 58 25 be 08 82 5f bc 62 fc fc 3d
       0.0072069396 -0.16146895 -0.013641842 0.12352826
000250 f4 62 00 3b 7b e2 cf 3d b9 8a e4 bd dd 85 59 3d
       0.001959023 0.101506196 -0.11159272 0.053106178
000260 a6 6d bf 3d 35 01 f3 3d 07 82 b4 3c ed 67 c5 3d
       0.09347086 0.118654646 0.022034658 0.09638963
000270 dd 2b 80 3d 0a b7 14 3d df 60 de 3d 3a a7 c0 3d
       0.06258366 0.036307372 0.108583204 0.09406896
000280 25 c1 31 bd fb d9 52 3d e4 43 b9 bd 6b 62 8f 3d
       -0.043397088 0.051477414 -0.09046152 0.070011936
000290 11 eb 97 3c 25 50 fc 3d 1e a0 6a bd 94 4e 26 3b
       0.018544706 0.12319974 -0.057281606 0.0025376426
0002a0 a5 41 47 bd 44 07 56 3c 64 6f 26 bd eb 9d ee bd
       -0.048646588 0.013063256 -0.040633574 -0.11651214
0002b0 d5 31 71 3d 05 b3 64 3d 8c 85 8b 3d e2 aa 04 3d
       0.058885414 0.05583479 0.068125814 0.03238953
0002c0 c4 7c db 3d f0 7d 6d 3d 94 9f d5 3b fd c0 d6 3d
       0.107171565 0.05798143 0.0065192673 0.10486028
0002d0 fd d2 35 bd 23 7c 4a 3d e3 ec d2 bd 9b bf 3b 3c
       -0.044390667 0.049434792 -0.10299089 0.0114592565
0002e0 95 0c 05 be 46 51 9b 3d b3 83 fb 3b 75 96 28 be
       -0.12993081 0.07583861 0.007675612 -0.16463645
0002f0 66 03 30 3d b6 dc 35 bd fc 0f 35 bd 8a c7 bc bd
       0.04297199 -0.04439994 -0.044204697 -0.092177466
000300 9e c0 97 bc 49 dc 9b bc 11 23 fb 3d 32 5a b4 3b
       -0.018524464 -0.019025939 0.12262548 0.005503916
000310 0e 23 09 be cb e0 81 3d 6f 80 bd 3d 11 46 cb 3c
       -0.13392279 0.06341704 0.092530124 0.024813684
000320 25 69 23 bc 1a ce 1f bd dd ca ad bd 2b 88 94 bd
       -0.009973799 -0.039014913 -0.08485959 -0.072525345
000330 ae c1 91 bc ec 94 c5 bc 89 fb ef bd a9 95 38 bd
       -0.017792549 -0.024118863 -0.117178984 -0.045064602
000340 13 9c 75 bd 93 21 38 bd cd a1 ce bd e2 8b 0c 3a
       -0.059963297 -0.044953894 -0.10089455 0.00053614203
000350 fe 24 c9 bd 4f 57 43 3d b4 2d 51 bd 92 b7 36 3d
       -0.09821509 0.047690686 -0.051068977 0.04460866
000360 01 61 35 be 77 6a 18 3e 5a 78 a8 3d 65 85 d4 bd
       -0.17712785 0.14884363 0.0822608 -0.103770055
000370 a0 21 86 3d 7f a7 ee 3c 87 90 8e 3d 81 17 01 bd
       0.06549382 0.029132603 0.0696116 -0.031516556
000380 3a b3 ee 3d a0 3e 3e bb a8 9f 93 3d 76 d4 ae 3d
       0.116552785 -0.0029029027 0.072081864 0.085366175
000390 ea 37 a5 bd ae 95 12 bd 46 5a ea bb f0 d2 38 3e
       -0.080673054 -0.035787277 -0.0071518747 0.18049216
0003a0 96 57 6c bd 8f 84 eb bd b1 49 d5 bd 67 39 b3 bd
       -0.057700716 -0.11499893 -0.10414446 -0.08751183
0003b0 d8 76 42 bd 7c c0 d8 3d 29 18 05 be 5f 95 75 3d
       -0.04747662 0.105835885 -0.12997498 0.059956905
0003c0 56 d8 8f bd 8f 2e 22 3d e1 3b 51 3d d8 ee 8f bc
       -0.07023685 0.039595183 0.051082496 -0.017569944
0003d0 5a 50 7e bb f6 d1 f0 3c e8 1d fb 3d 75 40 d1 bc
       -0.0038805217 0.029396992 0.122615635 -0.02554343
0003e0 d7 89 18 be a5 8b 21 3e 40 51 9e bd 46 5f 95 3c
       -0.14896332 0.15775926 -0.07730341 0.018233906
0003f0 b3 94 01 bc 08 3d 9c 3d b1 88 33 bb 31 4c 35 bc
       -0.007908988 0.07628828 -0.0027394707 -0.011065529

lstm.bias_ih_l0_reverse f4 [256]
000000 58 6d 7a 3d 67 64 d6 3d 5e 4d a5 bd 1b b7 64 3d
       0.061139435 0.10468369 -0.08071397 0.055838685
000010 d7 50 ef 3c 14 6c 1c be 3d 61 34 3d 87 8d d2 3d
       0.029213352 -0.15275604 0.044038046 0.102809004
000020 25 06 80 bd 6c 65 67 3d 42 c4 bc bd db fc 05 be
       -0.06251172 0.056493208 -0.09217121 -0.13084738
000030 02 03 b5 3d fe e0 29 3d 82 d8 55 3d 0c 7c e6 bd
       0.08838464 0.041474335 0.05220843 -0.11254129
000040 35 60 89 bd b3 4b 0d be 91 63 bc bd 9e 1a 0e bd
       -0.06707803 -0.13798408 -0.09198678 -0.034693353
000050 97 a0 62 bd f7 12 0d be ab 63 15 bd 17 c3 d8 bc
       -0.05532893 -0.13776766 -0.036472004 -0.026460214
000060 69 92 a9 bd 93 ff 60 bd 43 f9 e7 3d 1c 31 0b 3c
       -0.08279879 -0.054931235 0.1132684 0.008495595
000070 4a 1f ce bd bd 81 99 3d d5 f6 e6 3c 64 ef 0f 3d
       -0.10064562 0.07495449 0.02819387 0.03514041
000080 65 86 02 be 0a 92 ce 3c 03 f4 3d 3d 37 99 cb bc
       -0.1274658 0.025216121 0.046375286 -0.024853332
000090 a4 15 e9 3c 66 c9 b2 bd b1 6c 0a be 79 e9 5d bd
       0.028452702 -0.0872982 -0.13518025 -0.054177735
0000a0 11 1d d7 bc b3 39 de 3d 9d 5e c1 bd 1a f0 e5 bc
       -0.026258977 0.10850849 -0.09441874 -0.02806859
0000b0 f8 b1 9d 3c e1 06 23 3d 3c 14 67 3d 99 f2 5d bd
       0.019249901 0.039801482 0.05641578 -0.054186437
0000c0 be 55 2b bb 0f 11 b4 bd 68 bd 13 3d 27 cd e8 bc
       -0.0026143636 -0.08792316 0.036069304 -0.028418137
0000d0 38 de 49 3d 5b ef 0e 3e a7 d8 33 3d 8d 61 c6 3d
       0.04928419 0.13958494 0.043907788 0.09686575
0000e0 f3 0a bf 3d 8b 22 67 bc ed 8e fa bd 00 59 fa bb
       0.0932826 -0.014107357 -0.12234292 -0.007640004
0000f0 2b 22 c6 bc fe e9 7b 3d 85 a5 22 bd ea ad e1 3d
       -0.024186214 0.06150245 -0.039708633 0.110194996
000100 59 e4 cc bd b1 f3 90 bd a4 fe 47 b9 e5 42 bd 3d
       -0.10004491 -0.070777304 -0.0001907298 0.09241275
000110 77 c6 d9 bd 03 bb 59 bd 8f ef f1 bd 71 35 ed 3d
       -0.10633557 -0.053156864 -0.1181327 0.11582459
000120 98 29 84 3d 28 b8 9c bd 94 ab 25 bd 0f 5c be 3d
       0.06453246 -0.076523125 -0.040446833 0.092949025
000130 40 5b 86 bd 96 58 c8 bd 73 44 63 3b 8e 7b 0a bd
       -0.06560373 -0.097825214 0.003467825 -0.033809237
000140 22 d0 67 bc 3c 2e 10 3d 7d e7 30 bd 2e c4 6c bd
       -0.014148744 0.035200343 -0.043189514 -0.05780428
000150 fc a4 b7 bd 7f b5 1d 3d 7c f4 f7 bd 91 02 b1 3d
       -0.08967015 0.038503166 -0.121071786 0.08643068
000160 91 e4 8a 3d f4 20 71 bd 7e ef 94 3d 7e 98 87 bc
       0.06781877 -0.058869317 0.07272242 -0.016552206
000170 db 09 b7 bc 50 e7 21 bd c2 ff 1c 3b 68 3b fa bd
       -0.022343567 -0.039527237 0.0023956154 -0.12218362
000180 f4 e6 bc 3d c5 e4 16 3e c5 82 ce 3d 13 b2 d8 bc
       0.09223738 0.14735706 0.10083536 -0.0264521
000190 5f d5 f4 bd 00 19 28 bd e0 27 0f be 2a b1 8c bd
       -0.1195476 -0.041039467 -0.13980055 -0.06869729
0001a0 99 f9 29 bd 60 99 0e bb 5a 8a e9 bd e6 9c b1 bd
       -0.0414978 -0.00217589 -0.114033416 -0.08672504
0001b0 0d 02 80 bd 03 38 02 bc 7f 08 95 bd 69 e6 37 3e
       -0.06250391 -0.007947925 -0.07277011 0.17958988
0001c0 69 b0 60 bd 56 4f 5a bc dd fd 3b bd 5a 1d 3b 3b
       -0.054855738 -0.013324579 -0.0458964 0.002855143
0001d0 42 5c 6b ba c1 c6 d3 3d bf 10 f1 3d 36 00 77 bd
       -0.0008978286 0.10340644 0.11770772 -0.060302936
0001e0 cf 6b 0e 3d 0c 4e b2 3d 18 e5 b1 3d b6 46 c0 bd
       0.034770783 0.087062925 0.08686274 -0.09388487
0001f0 1e ee f9 bd 54 45 d4 3d 1f ba 4b 3d 6d 6f 11 ba
       -0.122036204 0.10364786 0.049738046 -0.0005547915
000200 9e 8e 85 bd 55 09 be 3d 31 e4 99 bd 49 70 4f bd
       -0.06521343 0.09279124 -0.07514227 -0.050644193
000210 5d a6 33 3d ad 55 d3 bd 74 dd fc 3d 6f 06 03 3e
       0.04385983 -0.10319076 0.12346926 0.12795423
000220 91 47 43 bd 1c 5a a8 bd 32 b8 ec bd 34 3a 79 3c
       -0.047675673 -0.08220312 -0.1155857 0.015211631
000230 f4 be 9e 3d 63 60 67 3d 65 67 fc bd ac 5e 04 be
       0.07751265 0.056488406 -0.123244084 -0.1292674
000240 c3 2b 8e ba 28 0f 88 3d 0b d3 d9 bd ce 3f 9e 3c
       -0.0010846782 0.06643516 -0.106359564 0.019317534
000250 6b bf c7 bd c3 2d a9 3d a5 b6 4f bd 2e 16 c9 bd
       -0.09753307 0.082606815 -0.050711293 -0.098186836
000260 b7 b1 e9 bd ec 9d 90 3d 31 0e 0e be d3 3c c8 3d
       -0.114108495 0.07061371 -0.13872601 0.09777226
000270 73 9e 88 bd 5a e8 13 bd 3b df 2e bb 6e dc 5b bd
       -0.06670847 -0.03611026 -0.0026683349 -0.053677015
000280 7b 5b 3a bd 13 94 b0 3d 73 36 b4 bc 31 bb ff bd
       -0.0454974 0.08621993 -0.02199862 -0.12486876
000290 a8 c3 37 bd 30 1a c0 3d c4 2a d4 bd c6 b1 53 3d
       -0.044864327 0.09379995 -0.103597194 0.05168321
0002a0 4a 19 b5 3d b5 16 e2 bd 6b 57 1a bd ed 26 10 3e
       0.08842714 -0.11039487 -0.037681025 0.14077349
0002b0 00 5c 78 3d a6 10 bf 3d 6c 32 d3 3d 33 ce 3e 3d
       0.060634613 0.09329347 0.103123516 0.046583366
0002c0 36 2d 4c 3d c5 4c d7 3d 78 6d f7 bb d8 24 e9 3a
       0.049847804 0.105126895 -0.0075508915 0.001778747
0002d0 11 57 bd bd e5 e5 4b bd 41 27 50 3d 39 c0 8a bd
       -0.09245122 -0.04977979 0.050818685 -0.06774945
0002e0 ee 59 85 bd 0f 90 e5 3d 55 f4 be 3d 63 fa 74 bd
       -0.06511293 0.112091176 0.093239464 -0.0598091
0002f0 6b ce 93 3d 7f 4b 2e bd 46 ee bf bc f0 4d 64 bc
       0.072171055 -0.042552467 -0.023429047 -0.013934597
000300 1a 44 13 bd 06 a5 5c bc 79 61 2e bd 73 70 66 bd
       -0.03595362 -0.013467079 -0.042573426 -0.056259584
000310 58 11 31 3c b6 0f d4 bd 0d 92 6b 3c a1 a3 92 3d
       0.010807358 -0.10354559 0.014378083 0.07160116
000320 c3 1e 17 3d f3 c4 93 3d ed 79 c8 3d c4 df 0e be
       0.03689457 0.072152995 0.097888805 -0.13952547
000330 9f 23 c7 3d 8e 0e 96 bd 2f ca 5c bd c5 ed 1e bd
       0.09723591 -0.07326995 -0.053903755 -0.038800973
000340 f4 35 7b bd 3b ab 84 3c 4b 0a cb 3d f2 98 42 3d
       -0.06133075 0.01619493 0.099140726 0.04750914
000350 8d d5 a4 bd 59 b7 a9 3d 34 16 8f 3d c1 4a d3 bc
       -0.08048544 0.08286924 0.06986657 -0.025792481
000360 2e 06 02 bd 38 4d c1 bd e2 0f a6 bd a3 db af bc
       -0.031744175 -0.094385564 -0.08108498 -0.021467036
000370 f3 e3 de 3d 49 25 a5 3d 8a 55 d7 bd b6 4e 37 3d
       0.108833216 0.08063752 -0.10514362 0.0447528
000380 9c 9d c7 bd 2f a3 31 bd 36 a4 03 3d 27 e2 21 3d
       -0.097468585 -0.043368515 0.032139026 0.039522316
000390 44 c0 41 bd 34 99 de bd d6 d9 a7 3d d6 eb fd bc
       -0.0473025 -0.10869065 0.08195846 -0.030996244
0003a0 7d 3c 66 bd 32 1e 04 3e ca c6 08 be 39 97 4f 3d
       -0.05621003 0.12902144 -0.13357082 0.050681327
0003b0 27 cf 55 bc 27 32 03 3d 2a bb f2 bd d0 ee 2b bd
       -0.013049877 0.03203025 -0.11852105 -0.041975796
0003c0 06 a0 66 3d 31 cd 4a bd 31 77 a7 3a 3a 26 ba 3b
       0.056304954 -0.049512092 0.0012776611 0.0056808265
0003d0 09 52 29 3d fd 04 87 3d 32 c0 9d bc fc 7e 08 bd
       0.041338 0.06592748 -0.019256685 -0.033324227
0003e0 98 e9 1c bd 48 09 94 3d 23 32 d0 3d 78 0a c8 bd
       -0.03830871 0.07228333 0.10165813 -0.09767622
0003f0 12 5a ec bd b6 b2 09 be f3 bd 47 bc f4 56 b7 bc
       -0.11540617 -0.13447079 -0.0121912835 -0.02238033
